{
  "storage" : "model.espresso.weights",
  "analyses" : {

  },
  "properties" : {

  },
  "format_version" : 200,
  "metadata_in_weights" : [

  ],
  "layers" : [
    {
      "nB" : 512,
      "top" : "48",
      "has_biases" : 1,
      "weights" : {

      },
      "nC" : 512,
      "blob_weights" : 3,
      "type" : "inner_product",
      "has_relu" : 0,
      "bottom" : "style",
      "blob_biases" : 1,
      "has_tanh" : 0,
      "debug_info" : "48",
      "name" : "48",
      "has_prelu" : 0
    },
    {
      "name" : "style.3",
      "weights" : {

      },
      "dst_w" : 1,
      "version" : 1,
      "dst_n" : 1,
      "dst_nd_rank" : 4,
      "type" : "reshape",
      "dst_h" : 1,
      "mode" : 0,
      "dynamic_shape" : false,
      "bottom" : "48",
      "debug_info" : "style.3",
      "dst_seq" : 1,
      "dst_k" : -1,
      "top" : "style.3"
    },
    {
      "bottom" : "style.3",
      "alpha" : 0.014731391333043575,
      "operation" : 1,
      "weights" : {

      },
      "fused_relu" : 0,
      "debug_info" : "modulation.1",
      "top" : "modulation.1",
      "type" : "elementwise",
      "name" : "modulation.1",
      "beta" : 0
    },
    {
      "top" : "hidden",
      "w" : 4,
      "h" : 4,
      "name" : "hidden",
      "nd_rank" : 4,
      "type" : "load_constant",
      "k" : 512,
      "bottom" : "",
      "debug_info" : "hidden",
      "n" : 1,
      "weights" : {

      },
      "constant_blob" : 5
    },
    {
      "bottom" : "hidden,modulation.1",
      "alpha" : 1,
      "operation" : 1,
      "weights" : {

      },
      "fused_relu" : 0,
      "debug_info" : "x.1",
      "top" : "x.1",
      "type" : "elementwise",
      "name" : "x.1",
      "beta" : 0
    },
    {
      "pad_r" : 1,
      "fused_relu" : 0,
      "fused_tanh" : 0,
      "debug_info" : "image.1",
      "pad_fill_mode" : 0,
      "pad_b" : 1,
      "pad_l" : 1,
      "top" : "image.1",
      "blob_weights" : 9,
      "K" : 512,
      "blob_biases" : 7,
      "name" : "image.1",
      "has_batch_norm" : 0,
      "type" : "convolution",
      "n_groups" : 1,
      "pad_t" : 1,
      "has_biases" : 1,
      "C" : 512,
      "bottom" : "x.1",
      "weights" : {

      },
      "Nx" : 3,
      "pad_mode" : 0,
      "pad_value" : 0,
      "Ny" : 3,
      "n_parallel" : 1
    },
    {
      "top" : "77",
      "w" : 4,
      "h" : 4,
      "name" : "77",
      "nd_rank" : 4,
      "type" : "load_constant",
      "k" : 1,
      "bottom" : "",
      "debug_info" : "77",
      "n" : 1,
      "weights" : {

      },
      "constant_blob" : 11
    },
    {
      "bottom" : "image.1,77",
      "alpha" : 1,
      "operation" : 0,
      "weights" : {

      },
      "fused_relu" : 0,
      "debug_info" : "out.1",
      "top" : "out.1",
      "type" : "elementwise",
      "name" : "out.1",
      "beta" : 0
    },
    {
      "top" : "m.conv1.bias",
      "w" : 1,
      "h" : 1,
      "name" : "m.conv1.bias",
      "nd_rank" : 4,
      "type" : "load_constant",
      "k" : 512,
      "bottom" : "",
      "debug_info" : "m.conv1.bias",
      "n" : 1,
      "weights" : {

      },
      "constant_blob" : 13
    },
    {
      "bottom" : "out.1,m.conv1.bias",
      "alpha" : 1,
      "operation" : 0,
      "weights" : {

      },
      "fused_relu" : 0,
      "debug_info" : "input.1",
      "top" : "input.1",
      "type" : "elementwise",
      "name" : "input.1",
      "beta" : 0
    },
    {
      "alpha" : 0.20000000298023224,
      "bottom" : "input.1",
      "weights" : {

      },
      "mode" : 2,
      "debug_info" : "x.5",
      "top" : "x.5",
      "type" : "activation",
      "name" : "x.5"
    },
    {
      "nB" : 512,
      "top" : "91",
      "has_biases" : 1,
      "weights" : {

      },
      "nC" : 512,
      "blob_weights" : 17,
      "type" : "inner_product",
      "has_relu" : 0,
      "bottom" : "style",
      "blob_biases" : 15,
      "has_tanh" : 0,
      "debug_info" : "91",
      "name" : "91",
      "has_prelu" : 0
    },
    {
      "name" : "93",
      "weights" : {

      },
      "dst_w" : 1,
      "version" : 1,
      "dst_n" : 1,
      "dst_nd_rank" : 4,
      "type" : "reshape",
      "dst_h" : 1,
      "mode" : 0,
      "dynamic_shape" : false,
      "bottom" : "91",
      "debug_info" : "93",
      "dst_seq" : 1,
      "dst_k" : -1,
      "top" : "93"
    },
    {
      "bottom" : "x.5,93",
      "alpha" : 1,
      "operation" : 1,
      "weights" : {

      },
      "fused_relu" : 0,
      "debug_info" : "x.9",
      "top" : "x.9",
      "type" : "elementwise",
      "name" : "x.9",
      "beta" : 0
    },
    {
      "bottom" : "x.9",
      "end" : 128,
      "start" : 0,
      "weights" : {

      },
      "axis" : 2,
      "debug_info" : "yl.1",
      "top" : "yl.1",
      "type" : "slice",
      "name" : "yl.1"
    },
    {
      "bottom" : "x.9",
      "end" : 512,
      "start" : 128,
      "weights" : {

      },
      "axis" : 2,
      "debug_info" : "high.1",
      "top" : "high.1",
      "type" : "slice",
      "name" : "high.1"
    },
    {
      "name" : "h.3",
      "weights" : {

      },
      "dst_w" : 4,
      "version" : 1,
      "dst_n" : 128,
      "dst_nd_rank" : 5,
      "type" : "reshape",
      "dst_h" : 4,
      "mode" : 0,
      "dynamic_shape" : false,
      "bottom" : "high.1",
      "debug_info" : "h.3",
      "dst_seq" : 1,
      "dst_k" : 3,
      "top" : "h.3"
    },
    {
      "begin_104" : 0,
      "begin_63" : 0,
      "begin_59" : 0,
      "begin_64" : 0,
      "begin_105" : 0,
      "begin_65" : 0,
      "begin_0" : 0,
      "begin_70" : 0,
      "begin_66" : 0,
      "begin_106" : 0,
      "begin_110" : 0,
      "begin_2" : 0,
      "begin_71" : 0,
      "begin_67" : 0,
      "begin_68" : 0,
      "begin_107" : 0,
      "begin_111" : 0,
      "begin_4" : 0,
      "begin_72" : 0,
      "begin_73" : 0,
      "begin_69" : 0,
      "begin_6" : 0,
      "begin_74" : 0,
      "begin_108" : 0,
      "type" : "split_nd",
      "begin_8" : 0,
      "begin_112" : 0,
      "begin_75" : 0,
      "begin_10" : 0,
      "begin_80" : 0,
      "begin_76" : 0,
      "begin_109" : 0,
      "begin_113" : 0,
      "begin_11" : 0,
      "nd_axis" : 2,
      "begin_81" : 0,
      "begin_77" : 0,
      "begin_114" : 0,
      "begin_12" : 0,
      "begin_78" : 0,
      "begin_82" : 0,
      "begin_13" : 0,
      "begin_83" : 0,
      "begin_79" : 0,
      "begin_115" : 0,
      "begin_14" : 0,
      "begin_84" : 0,
      "begin_15" : 0,
      "begin_85" : 0,
      "num_splits" : 3,
      "begin_116" : 0,
      "begin_120" : 0,
      "begin_20" : 0,
      "begin_86" : 0,
      "begin_16" : 0,
      "begin_90" : 0,
      "begin_21" : 0,
      "begin_91" : 0,
      "begin_87" : 0,
      "begin_17" : 0,
      "begin_117" : 0,
      "begin_121" : 0,
      "begin_18" : 0,
      "begin_92" : 0,
      "begin_88" : 0,
      "begin_22" : 0,
      "begin_23" : 0,
      "begin_89" : 0,
      "begin_19" : 0,
      "begin_93" : 0,
      "begin_118" : 0,
      "begin_122" : 0,
      "begin_24" : 0,
      "begin_94" : 0,
      "begin_25" : 0,
      "begin_95" : 0,
      "begin_119" : 0,
      "begin_123" : 0,
      "begin_30" : 0,
      "begin_26" : 0,
      "begin_96" : 0,
      "begin_124" : 0,
      "begin_31" : 0,
      "begin_97" : 0,
      "begin_27" : 0,
      "begin_28" : 0,
      "begin_98" : 0,
      "begin_32" : 0,
      "begin_125" : 0,
      "begin_33" : 0,
      "begin_29" : 0,
      "begin_99" : 0,
      "begin_1" : 0,
      "weights" : {

      },
      "begin_34" : 0,
      "bottom" : "h.3",
      "begin_3" : 0,
      "begin_126" : 0,
      "begin_35" : 0,
      "begin_5" : 0,
      "begin_36" : 0,
      "begin_40" : 0,
      "begin_127" : 0,
      "name" : "105",
      "begin_41" : 0,
      "begin_37" : 0,
      "begin_7" : 0,
      "begin_42" : 0,
      "begin_38" : 0,
      "begin_9" : 0,
      "begin_39" : 0,
      "begin_43" : 0,
      "begin_44" : 0,
      "begin_45" : 0,
      "begin_50" : 0,
      "begin_46" : 0,
      "begin_51" : 0,
      "begin_47" : 0,
      "begin_100" : 0,
      "begin_52" : 0,
      "debug_info" : "105",
      "begin_48" : 0,
      "top" : "105_0,105_1,105_2",
      "begin_101" : 0,
      "begin_53" : 0,
      "begin_49" : 0,
      "begin_54" : 0,
      "begin_55" : 0,
      "begin_102" : 0,
      "begin_60" : 0,
      "begin_56" : 0,
      "begin_103" : 0,
      "begin_57" : 0,
      "begin_61" : 0,
      "begin_62" : 0,
      "begin_58" : 0
    },
    {
      "size_of_axes" : 1,
      "bottom" : "105_0",
      "axes_0" : 2,
      "weights" : {

      },
      "nd_axis" : 0,
      "debug_info" : "squeeze_0",
      "version" : 1,
      "top" : "squeeze_0",
      "type" : "squeeze",
      "name" : "squeeze_0"
    },
    {
      "size_of_axes" : 1,
      "bottom" : "105_1",
      "axes_0" : 2,
      "weights" : {

      },
      "nd_axis" : 0,
      "debug_info" : "squeeze_1",
      "version" : 1,
      "top" : "squeeze_1",
      "type" : "squeeze",
      "name" : "squeeze_1"
    },
    {
      "size_of_axes" : 1,
      "bottom" : "105_2",
      "axes_0" : 2,
      "weights" : {

      },
      "nd_axis" : 0,
      "debug_info" : "squeeze_2",
      "version" : 1,
      "top" : "squeeze_2",
      "type" : "squeeze",
      "name" : "squeeze_2"
    },
    {
      "pad_r" : 0,
      "fused_relu" : 0,
      "fused_tanh" : 0,
      "debug_info" : "121_has_output_shape",
      "pad_fill_mode" : 0,
      "pad_b" : 0,
      "pad_l" : 0,
      "top" : "121_has_output_shape",
      "blob_weights" : 19,
      "K" : 128,
      "name" : "121_has_output_shape",
      "deconv_out_height" : 8,
      "has_batch_norm" : 0,
      "type" : "deconvolution",
      "n_groups" : 128,
      "pad_t" : 0,
      "hint_fallback_from_metal" : 1,
      "stride_y" : 2,
      "has_biases" : 0,
      "C" : 128,
      "bottom" : "yl.1",
      "weights" : {

      },
      "Nx" : 1,
      "pad_mode" : 0,
      "deconv_out_width" : 4,
      "pad_value" : 0,
      "Ny" : 2,
      "n_parallel" : 1
    },
    {
      "pad_r" : 0,
      "fused_relu" : 0,
      "fused_tanh" : 0,
      "debug_info" : "126_has_output_shape",
      "pad_fill_mode" : 0,
      "pad_b" : 0,
      "pad_l" : 0,
      "top" : "126_has_output_shape",
      "blob_weights" : 21,
      "K" : 128,
      "name" : "126_has_output_shape",
      "deconv_out_height" : 8,
      "has_batch_norm" : 0,
      "type" : "deconvolution",
      "n_groups" : 128,
      "pad_t" : 0,
      "hint_fallback_from_metal" : 1,
      "stride_y" : 2,
      "has_biases" : 0,
      "C" : 128,
      "bottom" : "squeeze_0",
      "weights" : {

      },
      "Nx" : 1,
      "pad_mode" : 0,
      "deconv_out_width" : 4,
      "pad_value" : 0,
      "Ny" : 2,
      "n_parallel" : 1
    },
    {
      "bottom" : "121_has_output_shape,126_has_output_shape",
      "alpha" : 1,
      "operation" : 0,
      "weights" : {

      },
      "fused_relu" : 0,
      "debug_info" : "lo.3",
      "top" : "lo.3",
      "type" : "elementwise",
      "name" : "lo.3",
      "beta" : 0
    },
    {
      "pad_r" : 0,
      "fused_relu" : 0,
      "fused_tanh" : 0,
      "debug_info" : "140_has_output_shape",
      "pad_fill_mode" : 0,
      "pad_b" : 0,
      "pad_l" : 0,
      "top" : "140_has_output_shape",
      "blob_weights" : 23,
      "K" : 128,
      "name" : "140_has_output_shape",
      "deconv_out_height" : 8,
      "has_batch_norm" : 0,
      "type" : "deconvolution",
      "n_groups" : 128,
      "pad_t" : 0,
      "hint_fallback_from_metal" : 1,
      "stride_y" : 2,
      "has_biases" : 0,
      "C" : 128,
      "bottom" : "squeeze_1",
      "weights" : {

      },
      "Nx" : 1,
      "pad_mode" : 0,
      "deconv_out_width" : 4,
      "pad_value" : 0,
      "Ny" : 2,
      "n_parallel" : 1
    },
    {
      "pad_r" : 0,
      "fused_relu" : 0,
      "fused_tanh" : 0,
      "debug_info" : "145_has_output_shape",
      "pad_fill_mode" : 0,
      "pad_b" : 0,
      "pad_l" : 0,
      "top" : "145_has_output_shape",
      "blob_weights" : 25,
      "K" : 128,
      "name" : "145_has_output_shape",
      "deconv_out_height" : 8,
      "has_batch_norm" : 0,
      "type" : "deconvolution",
      "n_groups" : 128,
      "pad_t" : 0,
      "hint_fallback_from_metal" : 1,
      "stride_y" : 2,
      "has_biases" : 0,
      "C" : 128,
      "bottom" : "squeeze_2",
      "weights" : {

      },
      "Nx" : 1,
      "pad_mode" : 0,
      "deconv_out_width" : 4,
      "pad_value" : 0,
      "Ny" : 2,
      "n_parallel" : 1
    },
    {
      "bottom" : "140_has_output_shape,145_has_output_shape",
      "alpha" : 1,
      "operation" : 0,
      "weights" : {

      },
      "fused_relu" : 0,
      "debug_info" : "hi.5",
      "top" : "hi.5",
      "type" : "elementwise",
      "name" : "hi.5",
      "beta" : 0
    },
    {
      "pad_r" : 0,
      "fused_relu" : 0,
      "fused_tanh" : 0,
      "debug_info" : "159_has_output_shape",
      "pad_fill_mode" : 0,
      "pad_b" : 0,
      "pad_l" : 0,
      "top" : "159_has_output_shape",
      "blob_weights" : 27,
      "K" : 128,
      "stride_x" : 2,
      "name" : "159_has_output_shape",
      "deconv_out_height" : 8,
      "has_batch_norm" : 0,
      "type" : "deconvolution",
      "n_groups" : 128,
      "pad_t" : 0,
      "hint_fallback_from_metal" : 1,
      "has_biases" : 0,
      "C" : 128,
      "bottom" : "lo.3",
      "weights" : {

      },
      "Nx" : 2,
      "pad_mode" : 0,
      "deconv_out_width" : 8,
      "pad_value" : 0,
      "Ny" : 1,
      "n_parallel" : 1
    },
    {
      "pad_r" : 0,
      "fused_relu" : 0,
      "fused_tanh" : 0,
      "debug_info" : "164_has_output_shape",
      "pad_fill_mode" : 0,
      "pad_b" : 0,
      "pad_l" : 0,
      "top" : "164_has_output_shape",
      "blob_weights" : 29,
      "K" : 128,
      "stride_x" : 2,
      "name" : "164_has_output_shape",
      "deconv_out_height" : 8,
      "has_batch_norm" : 0,
      "type" : "deconvolution",
      "n_groups" : 128,
      "pad_t" : 0,
      "hint_fallback_from_metal" : 1,
      "has_biases" : 0,
      "C" : 128,
      "bottom" : "hi.5",
      "weights" : {

      },
      "Nx" : 2,
      "pad_mode" : 0,
      "deconv_out_width" : 8,
      "pad_value" : 0,
      "Ny" : 1,
      "n_parallel" : 1
    },
    {
      "bottom" : "159_has_output_shape,164_has_output_shape",
      "alpha" : 1,
      "operation" : 0,
      "weights" : {

      },
      "fused_relu" : 0,
      "debug_info" : "x.11",
      "top" : "x.11",
      "type" : "elementwise",
      "name" : "x.11",
      "beta" : 0
    },
    {
      "nB" : 512,
      "top" : "175",
      "has_biases" : 1,
      "weights" : {

      },
      "nC" : 128,
      "blob_weights" : 33,
      "type" : "inner_product",
      "has_relu" : 0,
      "bottom" : "style",
      "blob_biases" : 31,
      "has_tanh" : 0,
      "debug_info" : "175",
      "name" : "175",
      "has_prelu" : 0
    },
    {
      "name" : "style.7",
      "weights" : {

      },
      "dst_w" : 1,
      "version" : 1,
      "dst_n" : 1,
      "dst_nd_rank" : 4,
      "type" : "reshape",
      "dst_h" : 1,
      "mode" : 0,
      "dynamic_shape" : false,
      "bottom" : "175",
      "debug_info" : "style.7",
      "dst_seq" : 1,
      "dst_k" : -1,
      "top" : "style.7"
    },
    {
      "bottom" : "style.7",
      "alpha" : 0.029462782666087151,
      "operation" : 1,
      "weights" : {

      },
      "fused_relu" : 0,
      "debug_info" : "modulation.5",
      "top" : "modulation.5",
      "type" : "elementwise",
      "name" : "modulation.5",
      "beta" : 0
    },
    {
      "bottom" : "x.11,modulation.5",
      "alpha" : 1,
      "operation" : 1,
      "weights" : {

      },
      "fused_relu" : 0,
      "debug_info" : "x.13",
      "top" : "x.13",
      "type" : "elementwise",
      "name" : "x.13",
      "beta" : 0
    },
    {
      "pad_r" : 1,
      "fused_relu" : 0,
      "fused_tanh" : 0,
      "debug_info" : "x.15",
      "pad_fill_mode" : 0,
      "pad_b" : 1,
      "pad_l" : 1,
      "top" : "x.15",
      "blob_weights" : 35,
      "K" : 128,
      "name" : "x.15",
      "has_batch_norm" : 0,
      "type" : "convolution",
      "n_groups" : 128,
      "pad_t" : 1,
      "has_biases" : 0,
      "C" : 128,
      "bottom" : "x.13",
      "weights" : {

      },
      "Nx" : 3,
      "pad_mode" : 0,
      "pad_value" : 0,
      "Ny" : 3,
      "n_parallel" : 1
    },
    {
      "pad_r" : 0,
      "fused_relu" : 0,
      "fused_tanh" : 0,
      "debug_info" : "image.3",
      "pad_fill_mode" : 0,
      "pad_b" : 0,
      "pad_l" : 0,
      "top" : "image.3",
      "blob_weights" : 39,
      "K" : 128,
      "blob_biases" : 37,
      "name" : "image.3",
      "has_batch_norm" : 0,
      "type" : "convolution",
      "n_groups" : 1,
      "pad_t" : 0,
      "has_biases" : 1,
      "C" : 512,
      "bottom" : "x.15",
      "weights" : {

      },
      "Nx" : 1,
      "pad_mode" : 0,
      "pad_value" : 0,
      "Ny" : 1,
      "n_parallel" : 1
    },
    {
      "top" : "211",
      "w" : 8,
      "h" : 8,
      "name" : "211",
      "nd_rank" : 4,
      "type" : "load_constant",
      "k" : 1,
      "bottom" : "",
      "debug_info" : "211",
      "n" : 1,
      "weights" : {

      },
      "constant_blob" : 41
    },
    {
      "bottom" : "image.3,211",
      "alpha" : 1,
      "operation" : 0,
      "weights" : {

      },
      "fused_relu" : 0,
      "debug_info" : "out.5",
      "top" : "out.5",
      "type" : "elementwise",
      "name" : "out.5",
      "beta" : 0
    },
    {
      "top" : "m.layers.0.conv1.bias",
      "w" : 1,
      "h" : 1,
      "name" : "m.layers.0.conv1.bias",
      "nd_rank" : 4,
      "type" : "load_constant",
      "k" : 512,
      "bottom" : "",
      "debug_info" : "m.layers.0.conv1.bias",
      "n" : 1,
      "weights" : {

      },
      "constant_blob" : 43
    },
    {
      "bottom" : "out.5,m.layers.0.conv1.bias",
      "alpha" : 1,
      "operation" : 0,
      "weights" : {

      },
      "fused_relu" : 0,
      "debug_info" : "input.3",
      "top" : "input.3",
      "type" : "elementwise",
      "name" : "input.3",
      "beta" : 0
    },
    {
      "alpha" : 0.20000000298023224,
      "bottom" : "input.3",
      "weights" : {

      },
      "mode" : 2,
      "debug_info" : "x.19",
      "top" : "x.19",
      "type" : "activation",
      "name" : "x.19"
    },
    {
      "nB" : 512,
      "top" : "224",
      "has_biases" : 1,
      "weights" : {

      },
      "nC" : 512,
      "blob_weights" : 47,
      "type" : "inner_product",
      "has_relu" : 0,
      "bottom" : "style",
      "blob_biases" : 45,
      "has_tanh" : 0,
      "debug_info" : "224",
      "name" : "224",
      "has_prelu" : 0
    },
    {
      "name" : "style.9",
      "weights" : {

      },
      "dst_w" : 1,
      "version" : 1,
      "dst_n" : 1,
      "dst_nd_rank" : 4,
      "type" : "reshape",
      "dst_h" : 1,
      "mode" : 0,
      "dynamic_shape" : false,
      "bottom" : "224",
      "debug_info" : "style.9",
      "dst_seq" : 1,
      "dst_k" : -1,
      "top" : "style.9"
    },
    {
      "bottom" : "style.9",
      "alpha" : 0.014731391333043575,
      "operation" : 1,
      "weights" : {

      },
      "fused_relu" : 0,
      "debug_info" : "modulation.7",
      "top" : "modulation.7",
      "type" : "elementwise",
      "name" : "modulation.7",
      "beta" : 0
    },
    {
      "bottom" : "x.19,modulation.7",
      "alpha" : 1,
      "operation" : 1,
      "weights" : {

      },
      "fused_relu" : 0,
      "debug_info" : "x.21",
      "top" : "x.21",
      "type" : "elementwise",
      "name" : "x.21",
      "beta" : 0
    },
    {
      "pad_r" : 1,
      "fused_relu" : 0,
      "fused_tanh" : 0,
      "debug_info" : "x.23",
      "pad_fill_mode" : 0,
      "pad_b" : 1,
      "pad_l" : 1,
      "top" : "x.23",
      "blob_weights" : 49,
      "K" : 512,
      "name" : "x.23",
      "has_batch_norm" : 0,
      "type" : "convolution",
      "n_groups" : 512,
      "pad_t" : 1,
      "has_biases" : 0,
      "C" : 512,
      "bottom" : "x.21",
      "weights" : {

      },
      "Nx" : 3,
      "pad_mode" : 0,
      "pad_value" : 0,
      "Ny" : 3,
      "n_parallel" : 1
    },
    {
      "pad_r" : 0,
      "fused_relu" : 0,
      "fused_tanh" : 0,
      "debug_info" : "image.5",
      "pad_fill_mode" : 0,
      "pad_b" : 0,
      "pad_l" : 0,
      "top" : "image.5",
      "blob_weights" : 53,
      "K" : 512,
      "blob_biases" : 51,
      "name" : "image.5",
      "has_batch_norm" : 0,
      "type" : "convolution",
      "n_groups" : 1,
      "pad_t" : 0,
      "has_biases" : 1,
      "C" : 512,
      "bottom" : "x.23",
      "weights" : {

      },
      "Nx" : 1,
      "pad_mode" : 0,
      "pad_value" : 0,
      "Ny" : 1,
      "n_parallel" : 1
    },
    {
      "top" : "260",
      "w" : 8,
      "h" : 8,
      "name" : "260",
      "nd_rank" : 4,
      "type" : "load_constant",
      "k" : 1,
      "bottom" : "",
      "debug_info" : "260",
      "n" : 1,
      "weights" : {

      },
      "constant_blob" : 55
    },
    {
      "bottom" : "image.5,260",
      "alpha" : 1,
      "operation" : 0,
      "weights" : {

      },
      "fused_relu" : 0,
      "debug_info" : "out.7",
      "top" : "out.7",
      "type" : "elementwise",
      "name" : "out.7",
      "beta" : 0
    },
    {
      "top" : "m.layers.0.conv2.bias",
      "w" : 1,
      "h" : 1,
      "name" : "m.layers.0.conv2.bias",
      "nd_rank" : 4,
      "type" : "load_constant",
      "k" : 512,
      "bottom" : "",
      "debug_info" : "m.layers.0.conv2.bias",
      "n" : 1,
      "weights" : {

      },
      "constant_blob" : 57
    },
    {
      "bottom" : "out.7,m.layers.0.conv2.bias",
      "alpha" : 1,
      "operation" : 0,
      "weights" : {

      },
      "fused_relu" : 0,
      "debug_info" : "input.5",
      "top" : "input.5",
      "type" : "elementwise",
      "name" : "input.5",
      "beta" : 0
    },
    {
      "alpha" : 0.20000000298023224,
      "bottom" : "input.5",
      "weights" : {

      },
      "mode" : 2,
      "debug_info" : "x.27",
      "top" : "x.27",
      "type" : "activation",
      "name" : "x.27"
    },
    {
      "nB" : 512,
      "top" : "280",
      "has_biases" : 1,
      "weights" : {

      },
      "nC" : 512,
      "blob_weights" : 61,
      "type" : "inner_product",
      "has_relu" : 0,
      "bottom" : "style",
      "blob_biases" : 59,
      "has_tanh" : 0,
      "debug_info" : "280",
      "name" : "280",
      "has_prelu" : 0
    },
    {
      "name" : "282",
      "weights" : {

      },
      "dst_w" : 1,
      "version" : 1,
      "dst_n" : 1,
      "dst_nd_rank" : 4,
      "type" : "reshape",
      "dst_h" : 1,
      "mode" : 0,
      "dynamic_shape" : false,
      "bottom" : "280",
      "debug_info" : "282",
      "dst_seq" : 1,
      "dst_k" : -1,
      "top" : "282"
    },
    {
      "bottom" : "x.27,282",
      "alpha" : 1,
      "operation" : 1,
      "weights" : {

      },
      "fused_relu" : 0,
      "debug_info" : "x.31",
      "top" : "x.31",
      "type" : "elementwise",
      "name" : "x.31",
      "beta" : 0
    },
    {
      "bottom" : "x.31",
      "end" : 128,
      "start" : 0,
      "weights" : {

      },
      "axis" : 2,
      "debug_info" : "yl.3",
      "top" : "yl.3",
      "type" : "slice",
      "name" : "yl.3"
    },
    {
      "bottom" : "x.31",
      "end" : 512,
      "start" : 128,
      "weights" : {

      },
      "axis" : 2,
      "debug_info" : "high.3",
      "top" : "high.3",
      "type" : "slice",
      "name" : "high.3"
    },
    {
      "name" : "h.7",
      "weights" : {

      },
      "dst_w" : 8,
      "version" : 1,
      "dst_n" : 128,
      "dst_nd_rank" : 5,
      "type" : "reshape",
      "dst_h" : 8,
      "mode" : 0,
      "dynamic_shape" : false,
      "bottom" : "high.3",
      "debug_info" : "h.7",
      "dst_seq" : 1,
      "dst_k" : 3,
      "top" : "h.7"
    },
    {
      "begin_104" : 0,
      "begin_63" : 0,
      "begin_59" : 0,
      "begin_64" : 0,
      "begin_105" : 0,
      "begin_65" : 0,
      "begin_0" : 0,
      "begin_70" : 0,
      "begin_66" : 0,
      "begin_106" : 0,
      "begin_110" : 0,
      "begin_2" : 0,
      "begin_71" : 0,
      "begin_67" : 0,
      "begin_68" : 0,
      "begin_107" : 0,
      "begin_111" : 0,
      "begin_4" : 0,
      "begin_72" : 0,
      "begin_73" : 0,
      "begin_69" : 0,
      "begin_6" : 0,
      "begin_74" : 0,
      "begin_108" : 0,
      "type" : "split_nd",
      "begin_8" : 0,
      "begin_112" : 0,
      "begin_75" : 0,
      "begin_10" : 0,
      "begin_80" : 0,
      "begin_76" : 0,
      "begin_109" : 0,
      "begin_113" : 0,
      "begin_11" : 0,
      "nd_axis" : 2,
      "begin_81" : 0,
      "begin_77" : 0,
      "begin_114" : 0,
      "begin_12" : 0,
      "begin_78" : 0,
      "begin_82" : 0,
      "begin_13" : 0,
      "begin_83" : 0,
      "begin_79" : 0,
      "begin_115" : 0,
      "begin_14" : 0,
      "begin_84" : 0,
      "begin_15" : 0,
      "begin_85" : 0,
      "num_splits" : 3,
      "begin_116" : 0,
      "begin_120" : 0,
      "begin_20" : 0,
      "begin_86" : 0,
      "begin_16" : 0,
      "begin_90" : 0,
      "begin_21" : 0,
      "begin_91" : 0,
      "begin_87" : 0,
      "begin_17" : 0,
      "begin_117" : 0,
      "begin_121" : 0,
      "begin_18" : 0,
      "begin_92" : 0,
      "begin_88" : 0,
      "begin_22" : 0,
      "begin_23" : 0,
      "begin_89" : 0,
      "begin_19" : 0,
      "begin_93" : 0,
      "begin_118" : 0,
      "begin_122" : 0,
      "begin_24" : 0,
      "begin_94" : 0,
      "begin_25" : 0,
      "begin_95" : 0,
      "begin_119" : 0,
      "begin_123" : 0,
      "begin_30" : 0,
      "begin_26" : 0,
      "begin_96" : 0,
      "begin_124" : 0,
      "begin_31" : 0,
      "begin_97" : 0,
      "begin_27" : 0,
      "begin_28" : 0,
      "begin_98" : 0,
      "begin_32" : 0,
      "begin_125" : 0,
      "begin_33" : 0,
      "begin_29" : 0,
      "begin_99" : 0,
      "begin_1" : 0,
      "weights" : {

      },
      "begin_34" : 0,
      "bottom" : "h.7",
      "begin_3" : 0,
      "begin_126" : 0,
      "begin_35" : 0,
      "begin_5" : 0,
      "begin_36" : 0,
      "begin_40" : 0,
      "begin_127" : 0,
      "name" : "294",
      "begin_41" : 0,
      "begin_37" : 0,
      "begin_7" : 0,
      "begin_42" : 0,
      "begin_38" : 0,
      "begin_9" : 0,
      "begin_39" : 0,
      "begin_43" : 0,
      "begin_44" : 0,
      "begin_45" : 0,
      "begin_50" : 0,
      "begin_46" : 0,
      "begin_51" : 0,
      "begin_47" : 0,
      "begin_100" : 0,
      "begin_52" : 0,
      "debug_info" : "294",
      "begin_48" : 0,
      "top" : "294_0,294_1,294_2",
      "begin_101" : 0,
      "begin_53" : 0,
      "begin_49" : 0,
      "begin_54" : 0,
      "begin_55" : 0,
      "begin_102" : 0,
      "begin_60" : 0,
      "begin_56" : 0,
      "begin_103" : 0,
      "begin_57" : 0,
      "begin_61" : 0,
      "begin_62" : 0,
      "begin_58" : 0
    },
    {
      "size_of_axes" : 1,
      "bottom" : "294_0",
      "axes_0" : 2,
      "weights" : {

      },
      "nd_axis" : 0,
      "debug_info" : "squeeze_3",
      "version" : 1,
      "top" : "squeeze_3",
      "type" : "squeeze",
      "name" : "squeeze_3"
    },
    {
      "size_of_axes" : 1,
      "bottom" : "294_1",
      "axes_0" : 2,
      "weights" : {

      },
      "nd_axis" : 0,
      "debug_info" : "squeeze_4",
      "version" : 1,
      "top" : "squeeze_4",
      "type" : "squeeze",
      "name" : "squeeze_4"
    },
    {
      "size_of_axes" : 1,
      "bottom" : "294_2",
      "axes_0" : 2,
      "weights" : {

      },
      "nd_axis" : 0,
      "debug_info" : "squeeze_5",
      "version" : 1,
      "top" : "squeeze_5",
      "type" : "squeeze",
      "name" : "squeeze_5"
    },
    {
      "pad_r" : 0,
      "fused_relu" : 0,
      "fused_tanh" : 0,
      "debug_info" : "310_has_output_shape",
      "pad_fill_mode" : 0,
      "pad_b" : 0,
      "pad_l" : 0,
      "top" : "310_has_output_shape",
      "blob_weights" : 63,
      "K" : 128,
      "name" : "310_has_output_shape",
      "deconv_out_height" : 16,
      "has_batch_norm" : 0,
      "type" : "deconvolution",
      "n_groups" : 128,
      "pad_t" : 0,
      "hint_fallback_from_metal" : 1,
      "stride_y" : 2,
      "has_biases" : 0,
      "C" : 128,
      "bottom" : "yl.3",
      "weights" : {

      },
      "Nx" : 1,
      "pad_mode" : 0,
      "deconv_out_width" : 8,
      "pad_value" : 0,
      "Ny" : 2,
      "n_parallel" : 1
    },
    {
      "pad_r" : 0,
      "fused_relu" : 0,
      "fused_tanh" : 0,
      "debug_info" : "315_has_output_shape",
      "pad_fill_mode" : 0,
      "pad_b" : 0,
      "pad_l" : 0,
      "top" : "315_has_output_shape",
      "blob_weights" : 65,
      "K" : 128,
      "name" : "315_has_output_shape",
      "deconv_out_height" : 16,
      "has_batch_norm" : 0,
      "type" : "deconvolution",
      "n_groups" : 128,
      "pad_t" : 0,
      "hint_fallback_from_metal" : 1,
      "stride_y" : 2,
      "has_biases" : 0,
      "C" : 128,
      "bottom" : "squeeze_3",
      "weights" : {

      },
      "Nx" : 1,
      "pad_mode" : 0,
      "deconv_out_width" : 8,
      "pad_value" : 0,
      "Ny" : 2,
      "n_parallel" : 1
    },
    {
      "bottom" : "310_has_output_shape,315_has_output_shape",
      "alpha" : 1,
      "operation" : 0,
      "weights" : {

      },
      "fused_relu" : 0,
      "debug_info" : "lo.7",
      "top" : "lo.7",
      "type" : "elementwise",
      "name" : "lo.7",
      "beta" : 0
    },
    {
      "pad_r" : 0,
      "fused_relu" : 0,
      "fused_tanh" : 0,
      "debug_info" : "329_has_output_shape",
      "pad_fill_mode" : 0,
      "pad_b" : 0,
      "pad_l" : 0,
      "top" : "329_has_output_shape",
      "blob_weights" : 67,
      "K" : 128,
      "name" : "329_has_output_shape",
      "deconv_out_height" : 16,
      "has_batch_norm" : 0,
      "type" : "deconvolution",
      "n_groups" : 128,
      "pad_t" : 0,
      "hint_fallback_from_metal" : 1,
      "stride_y" : 2,
      "has_biases" : 0,
      "C" : 128,
      "bottom" : "squeeze_4",
      "weights" : {

      },
      "Nx" : 1,
      "pad_mode" : 0,
      "deconv_out_width" : 8,
      "pad_value" : 0,
      "Ny" : 2,
      "n_parallel" : 1
    },
    {
      "pad_r" : 0,
      "fused_relu" : 0,
      "fused_tanh" : 0,
      "debug_info" : "334_has_output_shape",
      "pad_fill_mode" : 0,
      "pad_b" : 0,
      "pad_l" : 0,
      "top" : "334_has_output_shape",
      "blob_weights" : 69,
      "K" : 128,
      "name" : "334_has_output_shape",
      "deconv_out_height" : 16,
      "has_batch_norm" : 0,
      "type" : "deconvolution",
      "n_groups" : 128,
      "pad_t" : 0,
      "hint_fallback_from_metal" : 1,
      "stride_y" : 2,
      "has_biases" : 0,
      "C" : 128,
      "bottom" : "squeeze_5",
      "weights" : {

      },
      "Nx" : 1,
      "pad_mode" : 0,
      "deconv_out_width" : 8,
      "pad_value" : 0,
      "Ny" : 2,
      "n_parallel" : 1
    },
    {
      "bottom" : "329_has_output_shape,334_has_output_shape",
      "alpha" : 1,
      "operation" : 0,
      "weights" : {

      },
      "fused_relu" : 0,
      "debug_info" : "hi.11",
      "top" : "hi.11",
      "type" : "elementwise",
      "name" : "hi.11",
      "beta" : 0
    },
    {
      "pad_r" : 0,
      "fused_relu" : 0,
      "fused_tanh" : 0,
      "debug_info" : "348_has_output_shape",
      "pad_fill_mode" : 0,
      "pad_b" : 0,
      "pad_l" : 0,
      "top" : "348_has_output_shape",
      "blob_weights" : 71,
      "K" : 128,
      "stride_x" : 2,
      "name" : "348_has_output_shape",
      "deconv_out_height" : 16,
      "has_batch_norm" : 0,
      "type" : "deconvolution",
      "n_groups" : 128,
      "pad_t" : 0,
      "hint_fallback_from_metal" : 1,
      "has_biases" : 0,
      "C" : 128,
      "bottom" : "lo.7",
      "weights" : {

      },
      "Nx" : 2,
      "pad_mode" : 0,
      "deconv_out_width" : 16,
      "pad_value" : 0,
      "Ny" : 1,
      "n_parallel" : 1
    },
    {
      "pad_r" : 0,
      "fused_relu" : 0,
      "fused_tanh" : 0,
      "debug_info" : "353_has_output_shape",
      "pad_fill_mode" : 0,
      "pad_b" : 0,
      "pad_l" : 0,
      "top" : "353_has_output_shape",
      "blob_weights" : 73,
      "K" : 128,
      "stride_x" : 2,
      "name" : "353_has_output_shape",
      "deconv_out_height" : 16,
      "has_batch_norm" : 0,
      "type" : "deconvolution",
      "n_groups" : 128,
      "pad_t" : 0,
      "hint_fallback_from_metal" : 1,
      "has_biases" : 0,
      "C" : 128,
      "bottom" : "hi.11",
      "weights" : {

      },
      "Nx" : 2,
      "pad_mode" : 0,
      "deconv_out_width" : 16,
      "pad_value" : 0,
      "Ny" : 1,
      "n_parallel" : 1
    },
    {
      "bottom" : "348_has_output_shape,353_has_output_shape",
      "alpha" : 1,
      "operation" : 0,
      "weights" : {

      },
      "fused_relu" : 0,
      "debug_info" : "x.33",
      "top" : "x.33",
      "type" : "elementwise",
      "name" : "x.33",
      "beta" : 0
    },
    {
      "nB" : 512,
      "top" : "364",
      "has_biases" : 1,
      "weights" : {

      },
      "nC" : 128,
      "blob_weights" : 77,
      "type" : "inner_product",
      "has_relu" : 0,
      "bottom" : "style",
      "blob_biases" : 75,
      "has_tanh" : 0,
      "debug_info" : "364",
      "name" : "364",
      "has_prelu" : 0
    },
    {
      "name" : "style.13",
      "weights" : {

      },
      "dst_w" : 1,
      "version" : 1,
      "dst_n" : 1,
      "dst_nd_rank" : 4,
      "type" : "reshape",
      "dst_h" : 1,
      "mode" : 0,
      "dynamic_shape" : false,
      "bottom" : "364",
      "debug_info" : "style.13",
      "dst_seq" : 1,
      "dst_k" : -1,
      "top" : "style.13"
    },
    {
      "bottom" : "style.13",
      "alpha" : 0.029462782666087151,
      "operation" : 1,
      "weights" : {

      },
      "fused_relu" : 0,
      "debug_info" : "modulation.11",
      "top" : "modulation.11",
      "type" : "elementwise",
      "name" : "modulation.11",
      "beta" : 0
    },
    {
      "bottom" : "x.33,modulation.11",
      "alpha" : 1,
      "operation" : 1,
      "weights" : {

      },
      "fused_relu" : 0,
      "debug_info" : "x.35",
      "top" : "x.35",
      "type" : "elementwise",
      "name" : "x.35",
      "beta" : 0
    },
    {
      "pad_r" : 1,
      "fused_relu" : 0,
      "fused_tanh" : 0,
      "debug_info" : "x.37",
      "pad_fill_mode" : 0,
      "pad_b" : 1,
      "pad_l" : 1,
      "top" : "x.37",
      "blob_weights" : 79,
      "K" : 128,
      "name" : "x.37",
      "has_batch_norm" : 0,
      "type" : "convolution",
      "n_groups" : 128,
      "pad_t" : 1,
      "has_biases" : 0,
      "C" : 128,
      "bottom" : "x.35",
      "weights" : {

      },
      "Nx" : 3,
      "pad_mode" : 0,
      "pad_value" : 0,
      "Ny" : 3,
      "n_parallel" : 1
    },
    {
      "pad_r" : 0,
      "fused_relu" : 0,
      "fused_tanh" : 0,
      "debug_info" : "image.7",
      "pad_fill_mode" : 0,
      "pad_b" : 0,
      "pad_l" : 0,
      "top" : "image.7",
      "blob_weights" : 83,
      "K" : 128,
      "blob_biases" : 81,
      "name" : "image.7",
      "has_batch_norm" : 0,
      "type" : "convolution",
      "n_groups" : 1,
      "pad_t" : 0,
      "has_biases" : 1,
      "C" : 512,
      "bottom" : "x.37",
      "weights" : {

      },
      "Nx" : 1,
      "pad_mode" : 0,
      "pad_value" : 0,
      "Ny" : 1,
      "n_parallel" : 1
    },
    {
      "top" : "400",
      "w" : 16,
      "h" : 16,
      "name" : "400",
      "nd_rank" : 4,
      "type" : "load_constant",
      "k" : 1,
      "bottom" : "",
      "debug_info" : "400",
      "n" : 1,
      "weights" : {

      },
      "constant_blob" : 85
    },
    {
      "bottom" : "image.7,400",
      "alpha" : 1,
      "operation" : 0,
      "weights" : {

      },
      "fused_relu" : 0,
      "debug_info" : "out.11",
      "top" : "out.11",
      "type" : "elementwise",
      "name" : "out.11",
      "beta" : 0
    },
    {
      "top" : "m.layers.1.conv1.bias",
      "w" : 1,
      "h" : 1,
      "name" : "m.layers.1.conv1.bias",
      "nd_rank" : 4,
      "type" : "load_constant",
      "k" : 512,
      "bottom" : "",
      "debug_info" : "m.layers.1.conv1.bias",
      "n" : 1,
      "weights" : {

      },
      "constant_blob" : 87
    },
    {
      "bottom" : "out.11,m.layers.1.conv1.bias",
      "alpha" : 1,
      "operation" : 0,
      "weights" : {

      },
      "fused_relu" : 0,
      "debug_info" : "input.7",
      "top" : "input.7",
      "type" : "elementwise",
      "name" : "input.7",
      "beta" : 0
    },
    {
      "alpha" : 0.20000000298023224,
      "bottom" : "input.7",
      "weights" : {

      },
      "mode" : 2,
      "debug_info" : "x.41",
      "top" : "x.41",
      "type" : "activation",
      "name" : "x.41"
    },
    {
      "nB" : 512,
      "top" : "413",
      "has_biases" : 1,
      "weights" : {

      },
      "nC" : 512,
      "blob_weights" : 91,
      "type" : "inner_product",
      "has_relu" : 0,
      "bottom" : "style",
      "blob_biases" : 89,
      "has_tanh" : 0,
      "debug_info" : "413",
      "name" : "413",
      "has_prelu" : 0
    },
    {
      "name" : "style.15",
      "weights" : {

      },
      "dst_w" : 1,
      "version" : 1,
      "dst_n" : 1,
      "dst_nd_rank" : 4,
      "type" : "reshape",
      "dst_h" : 1,
      "mode" : 0,
      "dynamic_shape" : false,
      "bottom" : "413",
      "debug_info" : "style.15",
      "dst_seq" : 1,
      "dst_k" : -1,
      "top" : "style.15"
    },
    {
      "bottom" : "style.15",
      "alpha" : 0.014731391333043575,
      "operation" : 1,
      "weights" : {

      },
      "fused_relu" : 0,
      "debug_info" : "modulation.13",
      "top" : "modulation.13",
      "type" : "elementwise",
      "name" : "modulation.13",
      "beta" : 0
    },
    {
      "bottom" : "x.41,modulation.13",
      "alpha" : 1,
      "operation" : 1,
      "weights" : {

      },
      "fused_relu" : 0,
      "debug_info" : "x.43",
      "top" : "x.43",
      "type" : "elementwise",
      "name" : "x.43",
      "beta" : 0
    },
    {
      "pad_r" : 1,
      "fused_relu" : 0,
      "fused_tanh" : 0,
      "debug_info" : "x.45",
      "pad_fill_mode" : 0,
      "pad_b" : 1,
      "pad_l" : 1,
      "top" : "x.45",
      "blob_weights" : 93,
      "K" : 512,
      "name" : "x.45",
      "has_batch_norm" : 0,
      "type" : "convolution",
      "n_groups" : 512,
      "pad_t" : 1,
      "has_biases" : 0,
      "C" : 512,
      "bottom" : "x.43",
      "weights" : {

      },
      "Nx" : 3,
      "pad_mode" : 0,
      "pad_value" : 0,
      "Ny" : 3,
      "n_parallel" : 1
    },
    {
      "pad_r" : 0,
      "fused_relu" : 0,
      "fused_tanh" : 0,
      "debug_info" : "image.9",
      "pad_fill_mode" : 0,
      "pad_b" : 0,
      "pad_l" : 0,
      "top" : "image.9",
      "blob_weights" : 97,
      "K" : 512,
      "blob_biases" : 95,
      "name" : "image.9",
      "has_batch_norm" : 0,
      "type" : "convolution",
      "n_groups" : 1,
      "pad_t" : 0,
      "has_biases" : 1,
      "C" : 512,
      "bottom" : "x.45",
      "weights" : {

      },
      "Nx" : 1,
      "pad_mode" : 0,
      "pad_value" : 0,
      "Ny" : 1,
      "n_parallel" : 1
    },
    {
      "top" : "449",
      "w" : 16,
      "h" : 16,
      "name" : "449",
      "nd_rank" : 4,
      "type" : "load_constant",
      "k" : 1,
      "bottom" : "",
      "debug_info" : "449",
      "n" : 1,
      "weights" : {

      },
      "constant_blob" : 99
    },
    {
      "bottom" : "image.9,449",
      "alpha" : 1,
      "operation" : 0,
      "weights" : {

      },
      "fused_relu" : 0,
      "debug_info" : "out.13",
      "top" : "out.13",
      "type" : "elementwise",
      "name" : "out.13",
      "beta" : 0
    },
    {
      "top" : "m.layers.1.conv2.bias",
      "w" : 1,
      "h" : 1,
      "name" : "m.layers.1.conv2.bias",
      "nd_rank" : 4,
      "type" : "load_constant",
      "k" : 512,
      "bottom" : "",
      "debug_info" : "m.layers.1.conv2.bias",
      "n" : 1,
      "weights" : {

      },
      "constant_blob" : 101
    },
    {
      "bottom" : "out.13,m.layers.1.conv2.bias",
      "alpha" : 1,
      "operation" : 0,
      "weights" : {

      },
      "fused_relu" : 0,
      "debug_info" : "input.9",
      "top" : "input.9",
      "type" : "elementwise",
      "name" : "input.9",
      "beta" : 0
    },
    {
      "alpha" : 0.20000000298023224,
      "bottom" : "input.9",
      "weights" : {

      },
      "mode" : 2,
      "debug_info" : "x.49",
      "top" : "x.49",
      "type" : "activation",
      "name" : "x.49"
    },
    {
      "nB" : 512,
      "top" : "469",
      "has_biases" : 1,
      "weights" : {

      },
      "nC" : 512,
      "blob_weights" : 105,
      "type" : "inner_product",
      "has_relu" : 0,
      "bottom" : "style",
      "blob_biases" : 103,
      "has_tanh" : 0,
      "debug_info" : "469",
      "name" : "469",
      "has_prelu" : 0
    },
    {
      "name" : "471",
      "weights" : {

      },
      "dst_w" : 1,
      "version" : 1,
      "dst_n" : 1,
      "dst_nd_rank" : 4,
      "type" : "reshape",
      "dst_h" : 1,
      "mode" : 0,
      "dynamic_shape" : false,
      "bottom" : "469",
      "debug_info" : "471",
      "dst_seq" : 1,
      "dst_k" : -1,
      "top" : "471"
    },
    {
      "bottom" : "x.49,471",
      "alpha" : 1,
      "operation" : 1,
      "weights" : {

      },
      "fused_relu" : 0,
      "debug_info" : "x.53",
      "top" : "x.53",
      "type" : "elementwise",
      "name" : "x.53",
      "beta" : 0
    },
    {
      "bottom" : "x.53",
      "end" : 128,
      "start" : 0,
      "weights" : {

      },
      "axis" : 2,
      "debug_info" : "yl.5",
      "top" : "yl.5",
      "type" : "slice",
      "name" : "yl.5"
    },
    {
      "bottom" : "x.53",
      "end" : 512,
      "start" : 128,
      "weights" : {

      },
      "axis" : 2,
      "debug_info" : "high.5",
      "top" : "high.5",
      "type" : "slice",
      "name" : "high.5"
    },
    {
      "name" : "h.11",
      "weights" : {

      },
      "dst_w" : 16,
      "version" : 1,
      "dst_n" : 128,
      "dst_nd_rank" : 5,
      "type" : "reshape",
      "dst_h" : 16,
      "mode" : 0,
      "dynamic_shape" : false,
      "bottom" : "high.5",
      "debug_info" : "h.11",
      "dst_seq" : 1,
      "dst_k" : 3,
      "top" : "h.11"
    },
    {
      "begin_104" : 0,
      "begin_63" : 0,
      "begin_59" : 0,
      "begin_64" : 0,
      "begin_105" : 0,
      "begin_65" : 0,
      "begin_0" : 0,
      "begin_70" : 0,
      "begin_66" : 0,
      "begin_106" : 0,
      "begin_110" : 0,
      "begin_2" : 0,
      "begin_71" : 0,
      "begin_67" : 0,
      "begin_68" : 0,
      "begin_107" : 0,
      "begin_111" : 0,
      "begin_4" : 0,
      "begin_72" : 0,
      "begin_73" : 0,
      "begin_69" : 0,
      "begin_6" : 0,
      "begin_74" : 0,
      "begin_108" : 0,
      "type" : "split_nd",
      "begin_8" : 0,
      "begin_112" : 0,
      "begin_75" : 0,
      "begin_10" : 0,
      "begin_80" : 0,
      "begin_76" : 0,
      "begin_109" : 0,
      "begin_113" : 0,
      "begin_11" : 0,
      "nd_axis" : 2,
      "begin_81" : 0,
      "begin_77" : 0,
      "begin_114" : 0,
      "begin_12" : 0,
      "begin_78" : 0,
      "begin_82" : 0,
      "begin_13" : 0,
      "begin_83" : 0,
      "begin_79" : 0,
      "begin_115" : 0,
      "begin_14" : 0,
      "begin_84" : 0,
      "begin_15" : 0,
      "begin_85" : 0,
      "num_splits" : 3,
      "begin_116" : 0,
      "begin_120" : 0,
      "begin_20" : 0,
      "begin_86" : 0,
      "begin_16" : 0,
      "begin_90" : 0,
      "begin_21" : 0,
      "begin_91" : 0,
      "begin_87" : 0,
      "begin_17" : 0,
      "begin_117" : 0,
      "begin_121" : 0,
      "begin_18" : 0,
      "begin_92" : 0,
      "begin_88" : 0,
      "begin_22" : 0,
      "begin_23" : 0,
      "begin_89" : 0,
      "begin_19" : 0,
      "begin_93" : 0,
      "begin_118" : 0,
      "begin_122" : 0,
      "begin_24" : 0,
      "begin_94" : 0,
      "begin_25" : 0,
      "begin_95" : 0,
      "begin_119" : 0,
      "begin_123" : 0,
      "begin_30" : 0,
      "begin_26" : 0,
      "begin_96" : 0,
      "begin_124" : 0,
      "begin_31" : 0,
      "begin_97" : 0,
      "begin_27" : 0,
      "begin_28" : 0,
      "begin_98" : 0,
      "begin_32" : 0,
      "begin_125" : 0,
      "begin_33" : 0,
      "begin_29" : 0,
      "begin_99" : 0,
      "begin_1" : 0,
      "weights" : {

      },
      "begin_34" : 0,
      "bottom" : "h.11",
      "begin_3" : 0,
      "begin_126" : 0,
      "begin_35" : 0,
      "begin_5" : 0,
      "begin_36" : 0,
      "begin_40" : 0,
      "begin_127" : 0,
      "name" : "483",
      "begin_41" : 0,
      "begin_37" : 0,
      "begin_7" : 0,
      "begin_42" : 0,
      "begin_38" : 0,
      "begin_9" : 0,
      "begin_39" : 0,
      "begin_43" : 0,
      "begin_44" : 0,
      "begin_45" : 0,
      "begin_50" : 0,
      "begin_46" : 0,
      "begin_51" : 0,
      "begin_47" : 0,
      "begin_100" : 0,
      "begin_52" : 0,
      "debug_info" : "483",
      "begin_48" : 0,
      "top" : "483_0,483_1,483_2",
      "begin_101" : 0,
      "begin_53" : 0,
      "begin_49" : 0,
      "begin_54" : 0,
      "begin_55" : 0,
      "begin_102" : 0,
      "begin_60" : 0,
      "begin_56" : 0,
      "begin_103" : 0,
      "begin_57" : 0,
      "begin_61" : 0,
      "begin_62" : 0,
      "begin_58" : 0
    },
    {
      "size_of_axes" : 1,
      "bottom" : "483_0",
      "axes_0" : 2,
      "weights" : {

      },
      "nd_axis" : 0,
      "debug_info" : "squeeze_6",
      "version" : 1,
      "top" : "squeeze_6",
      "type" : "squeeze",
      "name" : "squeeze_6"
    },
    {
      "size_of_axes" : 1,
      "bottom" : "483_1",
      "axes_0" : 2,
      "weights" : {

      },
      "nd_axis" : 0,
      "debug_info" : "squeeze_7",
      "version" : 1,
      "top" : "squeeze_7",
      "type" : "squeeze",
      "name" : "squeeze_7"
    },
    {
      "size_of_axes" : 1,
      "bottom" : "483_2",
      "axes_0" : 2,
      "weights" : {

      },
      "nd_axis" : 0,
      "debug_info" : "squeeze_8",
      "version" : 1,
      "top" : "squeeze_8",
      "type" : "squeeze",
      "name" : "squeeze_8"
    },
    {
      "pad_r" : 0,
      "fused_relu" : 0,
      "fused_tanh" : 0,
      "debug_info" : "499_has_output_shape",
      "pad_fill_mode" : 0,
      "pad_b" : 0,
      "pad_l" : 0,
      "top" : "499_has_output_shape",
      "blob_weights" : 107,
      "K" : 128,
      "name" : "499_has_output_shape",
      "deconv_out_height" : 32,
      "has_batch_norm" : 0,
      "type" : "deconvolution",
      "n_groups" : 128,
      "pad_t" : 0,
      "hint_fallback_from_metal" : 1,
      "stride_y" : 2,
      "has_biases" : 0,
      "C" : 128,
      "bottom" : "yl.5",
      "weights" : {

      },
      "Nx" : 1,
      "pad_mode" : 0,
      "deconv_out_width" : 16,
      "pad_value" : 0,
      "Ny" : 2,
      "n_parallel" : 1
    },
    {
      "pad_r" : 0,
      "fused_relu" : 0,
      "fused_tanh" : 0,
      "debug_info" : "504_has_output_shape",
      "pad_fill_mode" : 0,
      "pad_b" : 0,
      "pad_l" : 0,
      "top" : "504_has_output_shape",
      "blob_weights" : 109,
      "K" : 128,
      "name" : "504_has_output_shape",
      "deconv_out_height" : 32,
      "has_batch_norm" : 0,
      "type" : "deconvolution",
      "n_groups" : 128,
      "pad_t" : 0,
      "hint_fallback_from_metal" : 1,
      "stride_y" : 2,
      "has_biases" : 0,
      "C" : 128,
      "bottom" : "squeeze_6",
      "weights" : {

      },
      "Nx" : 1,
      "pad_mode" : 0,
      "deconv_out_width" : 16,
      "pad_value" : 0,
      "Ny" : 2,
      "n_parallel" : 1
    },
    {
      "bottom" : "499_has_output_shape,504_has_output_shape",
      "alpha" : 1,
      "operation" : 0,
      "weights" : {

      },
      "fused_relu" : 0,
      "debug_info" : "lo.11",
      "top" : "lo.11",
      "type" : "elementwise",
      "name" : "lo.11",
      "beta" : 0
    },
    {
      "pad_r" : 0,
      "fused_relu" : 0,
      "fused_tanh" : 0,
      "debug_info" : "518_has_output_shape",
      "pad_fill_mode" : 0,
      "pad_b" : 0,
      "pad_l" : 0,
      "top" : "518_has_output_shape",
      "blob_weights" : 111,
      "K" : 128,
      "name" : "518_has_output_shape",
      "deconv_out_height" : 32,
      "has_batch_norm" : 0,
      "type" : "deconvolution",
      "n_groups" : 128,
      "pad_t" : 0,
      "hint_fallback_from_metal" : 1,
      "stride_y" : 2,
      "has_biases" : 0,
      "C" : 128,
      "bottom" : "squeeze_7",
      "weights" : {

      },
      "Nx" : 1,
      "pad_mode" : 0,
      "deconv_out_width" : 16,
      "pad_value" : 0,
      "Ny" : 2,
      "n_parallel" : 1
    },
    {
      "pad_r" : 0,
      "fused_relu" : 0,
      "fused_tanh" : 0,
      "debug_info" : "523_has_output_shape",
      "pad_fill_mode" : 0,
      "pad_b" : 0,
      "pad_l" : 0,
      "top" : "523_has_output_shape",
      "blob_weights" : 113,
      "K" : 128,
      "name" : "523_has_output_shape",
      "deconv_out_height" : 32,
      "has_batch_norm" : 0,
      "type" : "deconvolution",
      "n_groups" : 128,
      "pad_t" : 0,
      "hint_fallback_from_metal" : 1,
      "stride_y" : 2,
      "has_biases" : 0,
      "C" : 128,
      "bottom" : "squeeze_8",
      "weights" : {

      },
      "Nx" : 1,
      "pad_mode" : 0,
      "deconv_out_width" : 16,
      "pad_value" : 0,
      "Ny" : 2,
      "n_parallel" : 1
    },
    {
      "bottom" : "518_has_output_shape,523_has_output_shape",
      "alpha" : 1,
      "operation" : 0,
      "weights" : {

      },
      "fused_relu" : 0,
      "debug_info" : "hi.17",
      "top" : "hi.17",
      "type" : "elementwise",
      "name" : "hi.17",
      "beta" : 0
    },
    {
      "pad_r" : 0,
      "fused_relu" : 0,
      "fused_tanh" : 0,
      "debug_info" : "537_has_output_shape",
      "pad_fill_mode" : 0,
      "pad_b" : 0,
      "pad_l" : 0,
      "top" : "537_has_output_shape",
      "blob_weights" : 115,
      "K" : 128,
      "stride_x" : 2,
      "name" : "537_has_output_shape",
      "deconv_out_height" : 32,
      "has_batch_norm" : 0,
      "type" : "deconvolution",
      "n_groups" : 128,
      "pad_t" : 0,
      "hint_fallback_from_metal" : 1,
      "has_biases" : 0,
      "C" : 128,
      "bottom" : "lo.11",
      "weights" : {

      },
      "Nx" : 2,
      "pad_mode" : 0,
      "deconv_out_width" : 32,
      "pad_value" : 0,
      "Ny" : 1,
      "n_parallel" : 1
    },
    {
      "pad_r" : 0,
      "fused_relu" : 0,
      "fused_tanh" : 0,
      "debug_info" : "542_has_output_shape",
      "pad_fill_mode" : 0,
      "pad_b" : 0,
      "pad_l" : 0,
      "top" : "542_has_output_shape",
      "blob_weights" : 117,
      "K" : 128,
      "stride_x" : 2,
      "name" : "542_has_output_shape",
      "deconv_out_height" : 32,
      "has_batch_norm" : 0,
      "type" : "deconvolution",
      "n_groups" : 128,
      "pad_t" : 0,
      "hint_fallback_from_metal" : 1,
      "has_biases" : 0,
      "C" : 128,
      "bottom" : "hi.17",
      "weights" : {

      },
      "Nx" : 2,
      "pad_mode" : 0,
      "deconv_out_width" : 32,
      "pad_value" : 0,
      "Ny" : 1,
      "n_parallel" : 1
    },
    {
      "bottom" : "537_has_output_shape,542_has_output_shape",
      "alpha" : 1,
      "operation" : 0,
      "weights" : {

      },
      "fused_relu" : 0,
      "debug_info" : "x.55",
      "top" : "x.55",
      "type" : "elementwise",
      "name" : "x.55",
      "beta" : 0
    },
    {
      "nB" : 512,
      "top" : "553",
      "has_biases" : 1,
      "weights" : {

      },
      "nC" : 128,
      "blob_weights" : 121,
      "type" : "inner_product",
      "has_relu" : 0,
      "bottom" : "style",
      "blob_biases" : 119,
      "has_tanh" : 0,
      "debug_info" : "553",
      "name" : "553",
      "has_prelu" : 0
    },
    {
      "name" : "style.19",
      "weights" : {

      },
      "dst_w" : 1,
      "version" : 1,
      "dst_n" : 1,
      "dst_nd_rank" : 4,
      "type" : "reshape",
      "dst_h" : 1,
      "mode" : 0,
      "dynamic_shape" : false,
      "bottom" : "553",
      "debug_info" : "style.19",
      "dst_seq" : 1,
      "dst_k" : -1,
      "top" : "style.19"
    },
    {
      "bottom" : "style.19",
      "alpha" : 0.029462782666087151,
      "operation" : 1,
      "weights" : {

      },
      "fused_relu" : 0,
      "debug_info" : "modulation.17",
      "top" : "modulation.17",
      "type" : "elementwise",
      "name" : "modulation.17",
      "beta" : 0
    },
    {
      "bottom" : "x.55,modulation.17",
      "alpha" : 1,
      "operation" : 1,
      "weights" : {

      },
      "fused_relu" : 0,
      "debug_info" : "x.57",
      "top" : "x.57",
      "type" : "elementwise",
      "name" : "x.57",
      "beta" : 0
    },
    {
      "pad_r" : 1,
      "fused_relu" : 0,
      "fused_tanh" : 0,
      "debug_info" : "x.59",
      "pad_fill_mode" : 0,
      "pad_b" : 1,
      "pad_l" : 1,
      "top" : "x.59",
      "blob_weights" : 123,
      "K" : 128,
      "name" : "x.59",
      "has_batch_norm" : 0,
      "type" : "convolution",
      "n_groups" : 128,
      "pad_t" : 1,
      "has_biases" : 0,
      "C" : 128,
      "bottom" : "x.57",
      "weights" : {

      },
      "Nx" : 3,
      "pad_mode" : 0,
      "pad_value" : 0,
      "Ny" : 3,
      "n_parallel" : 1
    },
    {
      "pad_r" : 0,
      "fused_relu" : 0,
      "fused_tanh" : 0,
      "debug_info" : "image.11",
      "pad_fill_mode" : 0,
      "pad_b" : 0,
      "pad_l" : 0,
      "top" : "image.11",
      "blob_weights" : 127,
      "K" : 128,
      "blob_biases" : 125,
      "name" : "image.11",
      "has_batch_norm" : 0,
      "type" : "convolution",
      "n_groups" : 1,
      "pad_t" : 0,
      "has_biases" : 1,
      "C" : 512,
      "bottom" : "x.59",
      "weights" : {

      },
      "Nx" : 1,
      "pad_mode" : 0,
      "pad_value" : 0,
      "Ny" : 1,
      "n_parallel" : 1
    },
    {
      "top" : "589",
      "w" : 32,
      "h" : 32,
      "name" : "589",
      "nd_rank" : 4,
      "type" : "load_constant",
      "k" : 1,
      "bottom" : "",
      "debug_info" : "589",
      "n" : 1,
      "weights" : {

      },
      "constant_blob" : 129
    },
    {
      "bottom" : "image.11,589",
      "alpha" : 1,
      "operation" : 0,
      "weights" : {

      },
      "fused_relu" : 0,
      "debug_info" : "out.17",
      "top" : "out.17",
      "type" : "elementwise",
      "name" : "out.17",
      "beta" : 0
    },
    {
      "top" : "m.layers.2.conv1.bias",
      "w" : 1,
      "h" : 1,
      "name" : "m.layers.2.conv1.bias",
      "nd_rank" : 4,
      "type" : "load_constant",
      "k" : 512,
      "bottom" : "",
      "debug_info" : "m.layers.2.conv1.bias",
      "n" : 1,
      "weights" : {

      },
      "constant_blob" : 131
    },
    {
      "bottom" : "out.17,m.layers.2.conv1.bias",
      "alpha" : 1,
      "operation" : 0,
      "weights" : {

      },
      "fused_relu" : 0,
      "debug_info" : "input.11",
      "top" : "input.11",
      "type" : "elementwise",
      "name" : "input.11",
      "beta" : 0
    },
    {
      "alpha" : 0.20000000298023224,
      "bottom" : "input.11",
      "weights" : {

      },
      "mode" : 2,
      "debug_info" : "x.63",
      "top" : "x.63",
      "type" : "activation",
      "name" : "x.63"
    },
    {
      "nB" : 512,
      "top" : "602",
      "has_biases" : 1,
      "weights" : {

      },
      "nC" : 512,
      "blob_weights" : 135,
      "type" : "inner_product",
      "has_relu" : 0,
      "bottom" : "style",
      "blob_biases" : 133,
      "has_tanh" : 0,
      "debug_info" : "602",
      "name" : "602",
      "has_prelu" : 0
    },
    {
      "name" : "style.21",
      "weights" : {

      },
      "dst_w" : 1,
      "version" : 1,
      "dst_n" : 1,
      "dst_nd_rank" : 4,
      "type" : "reshape",
      "dst_h" : 1,
      "mode" : 0,
      "dynamic_shape" : false,
      "bottom" : "602",
      "debug_info" : "style.21",
      "dst_seq" : 1,
      "dst_k" : -1,
      "top" : "style.21"
    },
    {
      "bottom" : "style.21",
      "alpha" : 0.014731391333043575,
      "operation" : 1,
      "weights" : {

      },
      "fused_relu" : 0,
      "debug_info" : "modulation.19",
      "top" : "modulation.19",
      "type" : "elementwise",
      "name" : "modulation.19",
      "beta" : 0
    },
    {
      "bottom" : "x.63,modulation.19",
      "alpha" : 1,
      "operation" : 1,
      "weights" : {

      },
      "fused_relu" : 0,
      "debug_info" : "x.65",
      "top" : "x.65",
      "type" : "elementwise",
      "name" : "x.65",
      "beta" : 0
    },
    {
      "pad_r" : 1,
      "fused_relu" : 0,
      "fused_tanh" : 0,
      "debug_info" : "x.67",
      "pad_fill_mode" : 0,
      "pad_b" : 1,
      "pad_l" : 1,
      "top" : "x.67",
      "blob_weights" : 137,
      "K" : 512,
      "name" : "x.67",
      "has_batch_norm" : 0,
      "type" : "convolution",
      "n_groups" : 512,
      "pad_t" : 1,
      "has_biases" : 0,
      "C" : 512,
      "bottom" : "x.65",
      "weights" : {

      },
      "Nx" : 3,
      "pad_mode" : 0,
      "pad_value" : 0,
      "Ny" : 3,
      "n_parallel" : 1
    },
    {
      "pad_r" : 0,
      "fused_relu" : 0,
      "fused_tanh" : 0,
      "debug_info" : "image.13",
      "pad_fill_mode" : 0,
      "pad_b" : 0,
      "pad_l" : 0,
      "top" : "image.13",
      "blob_weights" : 141,
      "K" : 512,
      "blob_biases" : 139,
      "name" : "image.13",
      "has_batch_norm" : 0,
      "type" : "convolution",
      "n_groups" : 1,
      "pad_t" : 0,
      "has_biases" : 1,
      "C" : 512,
      "bottom" : "x.67",
      "weights" : {

      },
      "Nx" : 1,
      "pad_mode" : 0,
      "pad_value" : 0,
      "Ny" : 1,
      "n_parallel" : 1
    },
    {
      "top" : "638",
      "w" : 32,
      "h" : 32,
      "name" : "638",
      "nd_rank" : 4,
      "type" : "load_constant",
      "k" : 1,
      "bottom" : "",
      "debug_info" : "638",
      "n" : 1,
      "weights" : {

      },
      "constant_blob" : 143
    },
    {
      "bottom" : "image.13,638",
      "alpha" : 1,
      "operation" : 0,
      "weights" : {

      },
      "fused_relu" : 0,
      "debug_info" : "out.19",
      "top" : "out.19",
      "type" : "elementwise",
      "name" : "out.19",
      "beta" : 0
    },
    {
      "top" : "m.layers.2.conv2.bias",
      "w" : 1,
      "h" : 1,
      "name" : "m.layers.2.conv2.bias",
      "nd_rank" : 4,
      "type" : "load_constant",
      "k" : 512,
      "bottom" : "",
      "debug_info" : "m.layers.2.conv2.bias",
      "n" : 1,
      "weights" : {

      },
      "constant_blob" : 145
    },
    {
      "bottom" : "out.19,m.layers.2.conv2.bias",
      "alpha" : 1,
      "operation" : 0,
      "weights" : {

      },
      "fused_relu" : 0,
      "debug_info" : "input.13",
      "top" : "input.13",
      "type" : "elementwise",
      "name" : "input.13",
      "beta" : 0
    },
    {
      "alpha" : 0.20000000298023224,
      "bottom" : "input.13",
      "weights" : {

      },
      "mode" : 2,
      "debug_info" : "x.71",
      "top" : "x.71",
      "type" : "activation",
      "name" : "x.71"
    },
    {
      "nB" : 512,
      "top" : "658",
      "has_biases" : 1,
      "weights" : {

      },
      "nC" : 512,
      "blob_weights" : 149,
      "type" : "inner_product",
      "has_relu" : 0,
      "bottom" : "style",
      "blob_biases" : 147,
      "has_tanh" : 0,
      "debug_info" : "658",
      "name" : "658",
      "has_prelu" : 0
    },
    {
      "name" : "660",
      "weights" : {

      },
      "dst_w" : 1,
      "version" : 1,
      "dst_n" : 1,
      "dst_nd_rank" : 4,
      "type" : "reshape",
      "dst_h" : 1,
      "mode" : 0,
      "dynamic_shape" : false,
      "bottom" : "658",
      "debug_info" : "660",
      "dst_seq" : 1,
      "dst_k" : -1,
      "top" : "660"
    },
    {
      "bottom" : "x.71,660",
      "alpha" : 1,
      "operation" : 1,
      "weights" : {

      },
      "fused_relu" : 0,
      "debug_info" : "x.75",
      "top" : "x.75",
      "type" : "elementwise",
      "name" : "x.75",
      "beta" : 0
    },
    {
      "bottom" : "x.75",
      "end" : 128,
      "start" : 0,
      "weights" : {

      },
      "axis" : 2,
      "debug_info" : "yl.7",
      "top" : "yl.7",
      "type" : "slice",
      "name" : "yl.7"
    },
    {
      "bottom" : "x.75",
      "end" : 512,
      "start" : 128,
      "weights" : {

      },
      "axis" : 2,
      "debug_info" : "high.7",
      "top" : "high.7",
      "type" : "slice",
      "name" : "high.7"
    },
    {
      "name" : "h.15",
      "weights" : {

      },
      "dst_w" : 32,
      "version" : 1,
      "dst_n" : 128,
      "dst_nd_rank" : 5,
      "type" : "reshape",
      "dst_h" : 32,
      "mode" : 0,
      "dynamic_shape" : false,
      "bottom" : "high.7",
      "debug_info" : "h.15",
      "dst_seq" : 1,
      "dst_k" : 3,
      "top" : "h.15"
    },
    {
      "begin_104" : 0,
      "begin_63" : 0,
      "begin_59" : 0,
      "begin_64" : 0,
      "begin_105" : 0,
      "begin_65" : 0,
      "begin_0" : 0,
      "begin_70" : 0,
      "begin_66" : 0,
      "begin_106" : 0,
      "begin_110" : 0,
      "begin_2" : 0,
      "begin_71" : 0,
      "begin_67" : 0,
      "begin_68" : 0,
      "begin_107" : 0,
      "begin_111" : 0,
      "begin_4" : 0,
      "begin_72" : 0,
      "begin_73" : 0,
      "begin_69" : 0,
      "begin_6" : 0,
      "begin_74" : 0,
      "begin_108" : 0,
      "type" : "split_nd",
      "begin_8" : 0,
      "begin_112" : 0,
      "begin_75" : 0,
      "begin_10" : 0,
      "begin_80" : 0,
      "begin_76" : 0,
      "begin_109" : 0,
      "begin_113" : 0,
      "begin_11" : 0,
      "nd_axis" : 2,
      "begin_81" : 0,
      "begin_77" : 0,
      "begin_114" : 0,
      "begin_12" : 0,
      "begin_78" : 0,
      "begin_82" : 0,
      "begin_13" : 0,
      "begin_83" : 0,
      "begin_79" : 0,
      "begin_115" : 0,
      "begin_14" : 0,
      "begin_84" : 0,
      "begin_15" : 0,
      "begin_85" : 0,
      "num_splits" : 3,
      "begin_116" : 0,
      "begin_120" : 0,
      "begin_20" : 0,
      "begin_86" : 0,
      "begin_16" : 0,
      "begin_90" : 0,
      "begin_21" : 0,
      "begin_91" : 0,
      "begin_87" : 0,
      "begin_17" : 0,
      "begin_117" : 0,
      "begin_121" : 0,
      "begin_18" : 0,
      "begin_92" : 0,
      "begin_88" : 0,
      "begin_22" : 0,
      "begin_23" : 0,
      "begin_89" : 0,
      "begin_19" : 0,
      "begin_93" : 0,
      "begin_118" : 0,
      "begin_122" : 0,
      "begin_24" : 0,
      "begin_94" : 0,
      "begin_25" : 0,
      "begin_95" : 0,
      "begin_119" : 0,
      "begin_123" : 0,
      "begin_30" : 0,
      "begin_26" : 0,
      "begin_96" : 0,
      "begin_124" : 0,
      "begin_31" : 0,
      "begin_97" : 0,
      "begin_27" : 0,
      "begin_28" : 0,
      "begin_98" : 0,
      "begin_32" : 0,
      "begin_125" : 0,
      "begin_33" : 0,
      "begin_29" : 0,
      "begin_99" : 0,
      "begin_1" : 0,
      "weights" : {

      },
      "begin_34" : 0,
      "bottom" : "h.15",
      "begin_3" : 0,
      "begin_126" : 0,
      "begin_35" : 0,
      "begin_5" : 0,
      "begin_36" : 0,
      "begin_40" : 0,
      "begin_127" : 0,
      "name" : "672",
      "begin_41" : 0,
      "begin_37" : 0,
      "begin_7" : 0,
      "begin_42" : 0,
      "begin_38" : 0,
      "begin_9" : 0,
      "begin_39" : 0,
      "begin_43" : 0,
      "begin_44" : 0,
      "begin_45" : 0,
      "begin_50" : 0,
      "begin_46" : 0,
      "begin_51" : 0,
      "begin_47" : 0,
      "begin_100" : 0,
      "begin_52" : 0,
      "debug_info" : "672",
      "begin_48" : 0,
      "top" : "672_0,672_1,672_2",
      "begin_101" : 0,
      "begin_53" : 0,
      "begin_49" : 0,
      "begin_54" : 0,
      "begin_55" : 0,
      "begin_102" : 0,
      "begin_60" : 0,
      "begin_56" : 0,
      "begin_103" : 0,
      "begin_57" : 0,
      "begin_61" : 0,
      "begin_62" : 0,
      "begin_58" : 0
    },
    {
      "size_of_axes" : 1,
      "bottom" : "672_0",
      "axes_0" : 2,
      "weights" : {

      },
      "nd_axis" : 0,
      "debug_info" : "squeeze_9",
      "version" : 1,
      "top" : "squeeze_9",
      "type" : "squeeze",
      "name" : "squeeze_9"
    },
    {
      "size_of_axes" : 1,
      "bottom" : "672_1",
      "axes_0" : 2,
      "weights" : {

      },
      "nd_axis" : 0,
      "debug_info" : "squeeze_10",
      "version" : 1,
      "top" : "squeeze_10",
      "type" : "squeeze",
      "name" : "squeeze_10"
    },
    {
      "size_of_axes" : 1,
      "bottom" : "672_2",
      "axes_0" : 2,
      "weights" : {

      },
      "nd_axis" : 0,
      "debug_info" : "squeeze_11",
      "version" : 1,
      "top" : "squeeze_11",
      "type" : "squeeze",
      "name" : "squeeze_11"
    },
    {
      "pad_r" : 0,
      "fused_relu" : 0,
      "fused_tanh" : 0,
      "debug_info" : "688_has_output_shape",
      "pad_fill_mode" : 0,
      "pad_b" : 0,
      "pad_l" : 0,
      "top" : "688_has_output_shape",
      "blob_weights" : 151,
      "K" : 128,
      "name" : "688_has_output_shape",
      "deconv_out_height" : 64,
      "has_batch_norm" : 0,
      "type" : "deconvolution",
      "n_groups" : 128,
      "pad_t" : 0,
      "hint_fallback_from_metal" : 1,
      "stride_y" : 2,
      "has_biases" : 0,
      "C" : 128,
      "bottom" : "yl.7",
      "weights" : {

      },
      "Nx" : 1,
      "pad_mode" : 0,
      "deconv_out_width" : 32,
      "pad_value" : 0,
      "Ny" : 2,
      "n_parallel" : 1
    },
    {
      "pad_r" : 0,
      "fused_relu" : 0,
      "fused_tanh" : 0,
      "debug_info" : "693_has_output_shape",
      "pad_fill_mode" : 0,
      "pad_b" : 0,
      "pad_l" : 0,
      "top" : "693_has_output_shape",
      "blob_weights" : 153,
      "K" : 128,
      "name" : "693_has_output_shape",
      "deconv_out_height" : 64,
      "has_batch_norm" : 0,
      "type" : "deconvolution",
      "n_groups" : 128,
      "pad_t" : 0,
      "hint_fallback_from_metal" : 1,
      "stride_y" : 2,
      "has_biases" : 0,
      "C" : 128,
      "bottom" : "squeeze_9",
      "weights" : {

      },
      "Nx" : 1,
      "pad_mode" : 0,
      "deconv_out_width" : 32,
      "pad_value" : 0,
      "Ny" : 2,
      "n_parallel" : 1
    },
    {
      "bottom" : "688_has_output_shape,693_has_output_shape",
      "alpha" : 1,
      "operation" : 0,
      "weights" : {

      },
      "fused_relu" : 0,
      "debug_info" : "lo.15",
      "top" : "lo.15",
      "type" : "elementwise",
      "name" : "lo.15",
      "beta" : 0
    },
    {
      "pad_r" : 0,
      "fused_relu" : 0,
      "fused_tanh" : 0,
      "debug_info" : "707_has_output_shape",
      "pad_fill_mode" : 0,
      "pad_b" : 0,
      "pad_l" : 0,
      "top" : "707_has_output_shape",
      "blob_weights" : 155,
      "K" : 128,
      "name" : "707_has_output_shape",
      "deconv_out_height" : 64,
      "has_batch_norm" : 0,
      "type" : "deconvolution",
      "n_groups" : 128,
      "pad_t" : 0,
      "hint_fallback_from_metal" : 1,
      "stride_y" : 2,
      "has_biases" : 0,
      "C" : 128,
      "bottom" : "squeeze_10",
      "weights" : {

      },
      "Nx" : 1,
      "pad_mode" : 0,
      "deconv_out_width" : 32,
      "pad_value" : 0,
      "Ny" : 2,
      "n_parallel" : 1
    },
    {
      "pad_r" : 0,
      "fused_relu" : 0,
      "fused_tanh" : 0,
      "debug_info" : "712_has_output_shape",
      "pad_fill_mode" : 0,
      "pad_b" : 0,
      "pad_l" : 0,
      "top" : "712_has_output_shape",
      "blob_weights" : 157,
      "K" : 128,
      "name" : "712_has_output_shape",
      "deconv_out_height" : 64,
      "has_batch_norm" : 0,
      "type" : "deconvolution",
      "n_groups" : 128,
      "pad_t" : 0,
      "hint_fallback_from_metal" : 1,
      "stride_y" : 2,
      "has_biases" : 0,
      "C" : 128,
      "bottom" : "squeeze_11",
      "weights" : {

      },
      "Nx" : 1,
      "pad_mode" : 0,
      "deconv_out_width" : 32,
      "pad_value" : 0,
      "Ny" : 2,
      "n_parallel" : 1
    },
    {
      "bottom" : "707_has_output_shape,712_has_output_shape",
      "alpha" : 1,
      "operation" : 0,
      "weights" : {

      },
      "fused_relu" : 0,
      "debug_info" : "hi.23",
      "top" : "hi.23",
      "type" : "elementwise",
      "name" : "hi.23",
      "beta" : 0
    },
    {
      "pad_r" : 0,
      "fused_relu" : 0,
      "fused_tanh" : 0,
      "debug_info" : "726_has_output_shape",
      "pad_fill_mode" : 0,
      "pad_b" : 0,
      "pad_l" : 0,
      "top" : "726_has_output_shape",
      "blob_weights" : 159,
      "K" : 128,
      "stride_x" : 2,
      "name" : "726_has_output_shape",
      "deconv_out_height" : 64,
      "has_batch_norm" : 0,
      "type" : "deconvolution",
      "n_groups" : 128,
      "pad_t" : 0,
      "hint_fallback_from_metal" : 1,
      "has_biases" : 0,
      "C" : 128,
      "bottom" : "lo.15",
      "weights" : {

      },
      "Nx" : 2,
      "pad_mode" : 0,
      "deconv_out_width" : 64,
      "pad_value" : 0,
      "Ny" : 1,
      "n_parallel" : 1
    },
    {
      "pad_r" : 0,
      "fused_relu" : 0,
      "fused_tanh" : 0,
      "debug_info" : "731_has_output_shape",
      "pad_fill_mode" : 0,
      "pad_b" : 0,
      "pad_l" : 0,
      "top" : "731_has_output_shape",
      "blob_weights" : 161,
      "K" : 128,
      "stride_x" : 2,
      "name" : "731_has_output_shape",
      "deconv_out_height" : 64,
      "has_batch_norm" : 0,
      "type" : "deconvolution",
      "n_groups" : 128,
      "pad_t" : 0,
      "hint_fallback_from_metal" : 1,
      "has_biases" : 0,
      "C" : 128,
      "bottom" : "hi.23",
      "weights" : {

      },
      "Nx" : 2,
      "pad_mode" : 0,
      "deconv_out_width" : 64,
      "pad_value" : 0,
      "Ny" : 1,
      "n_parallel" : 1
    },
    {
      "bottom" : "726_has_output_shape,731_has_output_shape",
      "alpha" : 1,
      "operation" : 0,
      "weights" : {

      },
      "fused_relu" : 0,
      "debug_info" : "x.77",
      "top" : "x.77",
      "type" : "elementwise",
      "name" : "x.77",
      "beta" : 0
    },
    {
      "nB" : 512,
      "top" : "742",
      "has_biases" : 1,
      "weights" : {

      },
      "nC" : 128,
      "blob_weights" : 165,
      "type" : "inner_product",
      "has_relu" : 0,
      "bottom" : "style",
      "blob_biases" : 163,
      "has_tanh" : 0,
      "debug_info" : "742",
      "name" : "742",
      "has_prelu" : 0
    },
    {
      "name" : "style.25",
      "weights" : {

      },
      "dst_w" : 1,
      "version" : 1,
      "dst_n" : 1,
      "dst_nd_rank" : 4,
      "type" : "reshape",
      "dst_h" : 1,
      "mode" : 0,
      "dynamic_shape" : false,
      "bottom" : "742",
      "debug_info" : "style.25",
      "dst_seq" : 1,
      "dst_k" : -1,
      "top" : "style.25"
    },
    {
      "bottom" : "style.25",
      "alpha" : 0.029462782666087151,
      "operation" : 1,
      "weights" : {

      },
      "fused_relu" : 0,
      "debug_info" : "modulation.23",
      "top" : "modulation.23",
      "type" : "elementwise",
      "name" : "modulation.23",
      "beta" : 0
    },
    {
      "bottom" : "x.77,modulation.23",
      "alpha" : 1,
      "operation" : 1,
      "weights" : {

      },
      "fused_relu" : 0,
      "debug_info" : "x.79",
      "top" : "x.79",
      "type" : "elementwise",
      "name" : "x.79",
      "beta" : 0
    },
    {
      "pad_r" : 1,
      "fused_relu" : 0,
      "fused_tanh" : 0,
      "debug_info" : "x.81",
      "pad_fill_mode" : 0,
      "pad_b" : 1,
      "pad_l" : 1,
      "top" : "x.81",
      "blob_weights" : 167,
      "K" : 128,
      "name" : "x.81",
      "has_batch_norm" : 0,
      "type" : "convolution",
      "n_groups" : 128,
      "pad_t" : 1,
      "has_biases" : 0,
      "C" : 128,
      "bottom" : "x.79",
      "weights" : {

      },
      "Nx" : 3,
      "pad_mode" : 0,
      "pad_value" : 0,
      "Ny" : 3,
      "n_parallel" : 1
    },
    {
      "pad_r" : 0,
      "fused_relu" : 0,
      "fused_tanh" : 0,
      "debug_info" : "image.15",
      "pad_fill_mode" : 0,
      "pad_b" : 0,
      "pad_l" : 0,
      "top" : "image.15",
      "blob_weights" : 171,
      "K" : 128,
      "blob_biases" : 169,
      "name" : "image.15",
      "has_batch_norm" : 0,
      "type" : "convolution",
      "n_groups" : 1,
      "pad_t" : 0,
      "has_biases" : 1,
      "C" : 512,
      "bottom" : "x.81",
      "weights" : {

      },
      "Nx" : 1,
      "pad_mode" : 0,
      "pad_value" : 0,
      "Ny" : 1,
      "n_parallel" : 1
    },
    {
      "top" : "778",
      "w" : 64,
      "h" : 64,
      "name" : "778",
      "nd_rank" : 4,
      "type" : "load_constant",
      "k" : 1,
      "bottom" : "",
      "debug_info" : "778",
      "n" : 1,
      "weights" : {

      },
      "constant_blob" : 173
    },
    {
      "bottom" : "image.15,778",
      "alpha" : 1,
      "operation" : 0,
      "weights" : {

      },
      "fused_relu" : 0,
      "debug_info" : "out.23",
      "top" : "out.23",
      "type" : "elementwise",
      "name" : "out.23",
      "beta" : 0
    },
    {
      "top" : "m.layers.3.conv1.bias",
      "w" : 1,
      "h" : 1,
      "name" : "m.layers.3.conv1.bias",
      "nd_rank" : 4,
      "type" : "load_constant",
      "k" : 512,
      "bottom" : "",
      "debug_info" : "m.layers.3.conv1.bias",
      "n" : 1,
      "weights" : {

      },
      "constant_blob" : 175
    },
    {
      "bottom" : "out.23,m.layers.3.conv1.bias",
      "alpha" : 1,
      "operation" : 0,
      "weights" : {

      },
      "fused_relu" : 0,
      "debug_info" : "input.15",
      "top" : "input.15",
      "type" : "elementwise",
      "name" : "input.15",
      "beta" : 0
    },
    {
      "alpha" : 0.20000000298023224,
      "bottom" : "input.15",
      "weights" : {

      },
      "mode" : 2,
      "debug_info" : "x.85",
      "top" : "x.85",
      "type" : "activation",
      "name" : "x.85"
    },
    {
      "nB" : 512,
      "top" : "791",
      "has_biases" : 1,
      "weights" : {

      },
      "nC" : 512,
      "blob_weights" : 179,
      "type" : "inner_product",
      "has_relu" : 0,
      "bottom" : "style",
      "blob_biases" : 177,
      "has_tanh" : 0,
      "debug_info" : "791",
      "name" : "791",
      "has_prelu" : 0
    },
    {
      "name" : "style.27",
      "weights" : {

      },
      "dst_w" : 1,
      "version" : 1,
      "dst_n" : 1,
      "dst_nd_rank" : 4,
      "type" : "reshape",
      "dst_h" : 1,
      "mode" : 0,
      "dynamic_shape" : false,
      "bottom" : "791",
      "debug_info" : "style.27",
      "dst_seq" : 1,
      "dst_k" : -1,
      "top" : "style.27"
    },
    {
      "bottom" : "style.27",
      "alpha" : 0.014731391333043575,
      "operation" : 1,
      "weights" : {

      },
      "fused_relu" : 0,
      "debug_info" : "modulation.25",
      "top" : "modulation.25",
      "type" : "elementwise",
      "name" : "modulation.25",
      "beta" : 0
    },
    {
      "bottom" : "x.85,modulation.25",
      "alpha" : 1,
      "operation" : 1,
      "weights" : {

      },
      "fused_relu" : 0,
      "debug_info" : "x.87",
      "top" : "x.87",
      "type" : "elementwise",
      "name" : "x.87",
      "beta" : 0
    },
    {
      "pad_r" : 1,
      "fused_relu" : 0,
      "fused_tanh" : 0,
      "debug_info" : "x.89",
      "pad_fill_mode" : 0,
      "pad_b" : 1,
      "pad_l" : 1,
      "top" : "x.89",
      "blob_weights" : 181,
      "K" : 512,
      "name" : "x.89",
      "has_batch_norm" : 0,
      "type" : "convolution",
      "n_groups" : 512,
      "pad_t" : 1,
      "has_biases" : 0,
      "C" : 512,
      "bottom" : "x.87",
      "weights" : {

      },
      "Nx" : 3,
      "pad_mode" : 0,
      "pad_value" : 0,
      "Ny" : 3,
      "n_parallel" : 1
    },
    {
      "pad_r" : 0,
      "fused_relu" : 0,
      "fused_tanh" : 0,
      "debug_info" : "image.17",
      "pad_fill_mode" : 0,
      "pad_b" : 0,
      "pad_l" : 0,
      "top" : "image.17",
      "blob_weights" : 185,
      "K" : 512,
      "blob_biases" : 183,
      "name" : "image.17",
      "has_batch_norm" : 0,
      "type" : "convolution",
      "n_groups" : 1,
      "pad_t" : 0,
      "has_biases" : 1,
      "C" : 512,
      "bottom" : "x.89",
      "weights" : {

      },
      "Nx" : 1,
      "pad_mode" : 0,
      "pad_value" : 0,
      "Ny" : 1,
      "n_parallel" : 1
    },
    {
      "top" : "827",
      "w" : 64,
      "h" : 64,
      "name" : "827",
      "nd_rank" : 4,
      "type" : "load_constant",
      "k" : 1,
      "bottom" : "",
      "debug_info" : "827",
      "n" : 1,
      "weights" : {

      },
      "constant_blob" : 187
    },
    {
      "bottom" : "image.17,827",
      "alpha" : 1,
      "operation" : 0,
      "weights" : {

      },
      "fused_relu" : 0,
      "debug_info" : "out.25",
      "top" : "out.25",
      "type" : "elementwise",
      "name" : "out.25",
      "beta" : 0
    },
    {
      "top" : "m.layers.3.conv2.bias",
      "w" : 1,
      "h" : 1,
      "name" : "m.layers.3.conv2.bias",
      "nd_rank" : 4,
      "type" : "load_constant",
      "k" : 512,
      "bottom" : "",
      "debug_info" : "m.layers.3.conv2.bias",
      "n" : 1,
      "weights" : {

      },
      "constant_blob" : 189
    },
    {
      "bottom" : "out.25,m.layers.3.conv2.bias",
      "alpha" : 1,
      "operation" : 0,
      "weights" : {

      },
      "fused_relu" : 0,
      "debug_info" : "input.17",
      "top" : "input.17",
      "type" : "elementwise",
      "name" : "input.17",
      "beta" : 0
    },
    {
      "alpha" : 0.20000000298023224,
      "bottom" : "input.17",
      "weights" : {

      },
      "mode" : 2,
      "debug_info" : "x.93",
      "top" : "x.93",
      "type" : "activation",
      "name" : "x.93"
    },
    {
      "nB" : 512,
      "top" : "847",
      "has_biases" : 1,
      "weights" : {

      },
      "nC" : 512,
      "blob_weights" : 193,
      "type" : "inner_product",
      "has_relu" : 0,
      "bottom" : "style",
      "blob_biases" : 191,
      "has_tanh" : 0,
      "debug_info" : "847",
      "name" : "847",
      "has_prelu" : 0
    },
    {
      "name" : "849",
      "weights" : {

      },
      "dst_w" : 1,
      "version" : 1,
      "dst_n" : 1,
      "dst_nd_rank" : 4,
      "type" : "reshape",
      "dst_h" : 1,
      "mode" : 0,
      "dynamic_shape" : false,
      "bottom" : "847",
      "debug_info" : "849",
      "dst_seq" : 1,
      "dst_k" : -1,
      "top" : "849"
    },
    {
      "bottom" : "x.93,849",
      "alpha" : 1,
      "operation" : 1,
      "weights" : {

      },
      "fused_relu" : 0,
      "debug_info" : "x.97",
      "top" : "x.97",
      "type" : "elementwise",
      "name" : "x.97",
      "beta" : 0
    },
    {
      "bottom" : "x.97",
      "end" : 128,
      "start" : 0,
      "weights" : {

      },
      "axis" : 2,
      "debug_info" : "yl.9",
      "top" : "yl.9",
      "type" : "slice",
      "name" : "yl.9"
    },
    {
      "bottom" : "x.97",
      "end" : 512,
      "start" : 128,
      "weights" : {

      },
      "axis" : 2,
      "debug_info" : "high.9",
      "top" : "high.9",
      "type" : "slice",
      "name" : "high.9"
    },
    {
      "name" : "h.19",
      "weights" : {

      },
      "dst_w" : 64,
      "version" : 1,
      "dst_n" : 128,
      "dst_nd_rank" : 5,
      "type" : "reshape",
      "dst_h" : 64,
      "mode" : 0,
      "dynamic_shape" : false,
      "bottom" : "high.9",
      "debug_info" : "h.19",
      "dst_seq" : 1,
      "dst_k" : 3,
      "top" : "h.19"
    },
    {
      "begin_104" : 0,
      "begin_63" : 0,
      "begin_59" : 0,
      "begin_64" : 0,
      "begin_105" : 0,
      "begin_65" : 0,
      "begin_0" : 0,
      "begin_70" : 0,
      "begin_66" : 0,
      "begin_106" : 0,
      "begin_110" : 0,
      "begin_2" : 0,
      "begin_71" : 0,
      "begin_67" : 0,
      "begin_68" : 0,
      "begin_107" : 0,
      "begin_111" : 0,
      "begin_4" : 0,
      "begin_72" : 0,
      "begin_73" : 0,
      "begin_69" : 0,
      "begin_6" : 0,
      "begin_74" : 0,
      "begin_108" : 0,
      "type" : "split_nd",
      "begin_8" : 0,
      "begin_112" : 0,
      "begin_75" : 0,
      "begin_10" : 0,
      "begin_80" : 0,
      "begin_76" : 0,
      "begin_109" : 0,
      "begin_113" : 0,
      "begin_11" : 0,
      "nd_axis" : 2,
      "begin_81" : 0,
      "begin_77" : 0,
      "begin_114" : 0,
      "begin_12" : 0,
      "begin_78" : 0,
      "begin_82" : 0,
      "begin_13" : 0,
      "begin_83" : 0,
      "begin_79" : 0,
      "begin_115" : 0,
      "begin_14" : 0,
      "begin_84" : 0,
      "begin_15" : 0,
      "begin_85" : 0,
      "num_splits" : 3,
      "begin_116" : 0,
      "begin_120" : 0,
      "begin_20" : 0,
      "begin_86" : 0,
      "begin_16" : 0,
      "begin_90" : 0,
      "begin_21" : 0,
      "begin_91" : 0,
      "begin_87" : 0,
      "begin_17" : 0,
      "begin_117" : 0,
      "begin_121" : 0,
      "begin_18" : 0,
      "begin_92" : 0,
      "begin_88" : 0,
      "begin_22" : 0,
      "begin_23" : 0,
      "begin_89" : 0,
      "begin_19" : 0,
      "begin_93" : 0,
      "begin_118" : 0,
      "begin_122" : 0,
      "begin_24" : 0,
      "begin_94" : 0,
      "begin_25" : 0,
      "begin_95" : 0,
      "begin_119" : 0,
      "begin_123" : 0,
      "begin_30" : 0,
      "begin_26" : 0,
      "begin_96" : 0,
      "begin_124" : 0,
      "begin_31" : 0,
      "begin_97" : 0,
      "begin_27" : 0,
      "begin_28" : 0,
      "begin_98" : 0,
      "begin_32" : 0,
      "begin_125" : 0,
      "begin_33" : 0,
      "begin_29" : 0,
      "begin_99" : 0,
      "begin_1" : 0,
      "weights" : {

      },
      "begin_34" : 0,
      "bottom" : "h.19",
      "begin_3" : 0,
      "begin_126" : 0,
      "begin_35" : 0,
      "begin_5" : 0,
      "begin_36" : 0,
      "begin_40" : 0,
      "begin_127" : 0,
      "name" : "861",
      "begin_41" : 0,
      "begin_37" : 0,
      "begin_7" : 0,
      "begin_42" : 0,
      "begin_38" : 0,
      "begin_9" : 0,
      "begin_39" : 0,
      "begin_43" : 0,
      "begin_44" : 0,
      "begin_45" : 0,
      "begin_50" : 0,
      "begin_46" : 0,
      "begin_51" : 0,
      "begin_47" : 0,
      "begin_100" : 0,
      "begin_52" : 0,
      "debug_info" : "861",
      "begin_48" : 0,
      "top" : "861_0,861_1,861_2",
      "begin_101" : 0,
      "begin_53" : 0,
      "begin_49" : 0,
      "begin_54" : 0,
      "begin_55" : 0,
      "begin_102" : 0,
      "begin_60" : 0,
      "begin_56" : 0,
      "begin_103" : 0,
      "begin_57" : 0,
      "begin_61" : 0,
      "begin_62" : 0,
      "begin_58" : 0
    },
    {
      "size_of_axes" : 1,
      "bottom" : "861_0",
      "axes_0" : 2,
      "weights" : {

      },
      "nd_axis" : 0,
      "debug_info" : "squeeze_12",
      "version" : 1,
      "top" : "squeeze_12",
      "type" : "squeeze",
      "name" : "squeeze_12"
    },
    {
      "size_of_axes" : 1,
      "bottom" : "861_1",
      "axes_0" : 2,
      "weights" : {

      },
      "nd_axis" : 0,
      "debug_info" : "squeeze_13",
      "version" : 1,
      "top" : "squeeze_13",
      "type" : "squeeze",
      "name" : "squeeze_13"
    },
    {
      "size_of_axes" : 1,
      "bottom" : "861_2",
      "axes_0" : 2,
      "weights" : {

      },
      "nd_axis" : 0,
      "debug_info" : "squeeze_14",
      "version" : 1,
      "top" : "squeeze_14",
      "type" : "squeeze",
      "name" : "squeeze_14"
    },
    {
      "pad_r" : 0,
      "fused_relu" : 0,
      "fused_tanh" : 0,
      "debug_info" : "877_has_output_shape",
      "pad_fill_mode" : 0,
      "pad_b" : 0,
      "pad_l" : 0,
      "top" : "877_has_output_shape",
      "blob_weights" : 195,
      "K" : 128,
      "name" : "877_has_output_shape",
      "deconv_out_height" : 128,
      "has_batch_norm" : 0,
      "type" : "deconvolution",
      "n_groups" : 128,
      "pad_t" : 0,
      "hint_fallback_from_metal" : 1,
      "stride_y" : 2,
      "has_biases" : 0,
      "C" : 128,
      "bottom" : "yl.9",
      "weights" : {

      },
      "Nx" : 1,
      "pad_mode" : 0,
      "deconv_out_width" : 64,
      "pad_value" : 0,
      "Ny" : 2,
      "n_parallel" : 1
    },
    {
      "pad_r" : 0,
      "fused_relu" : 0,
      "fused_tanh" : 0,
      "debug_info" : "882_has_output_shape",
      "pad_fill_mode" : 0,
      "pad_b" : 0,
      "pad_l" : 0,
      "top" : "882_has_output_shape",
      "blob_weights" : 197,
      "K" : 128,
      "name" : "882_has_output_shape",
      "deconv_out_height" : 128,
      "has_batch_norm" : 0,
      "type" : "deconvolution",
      "n_groups" : 128,
      "pad_t" : 0,
      "hint_fallback_from_metal" : 1,
      "stride_y" : 2,
      "has_biases" : 0,
      "C" : 128,
      "bottom" : "squeeze_12",
      "weights" : {

      },
      "Nx" : 1,
      "pad_mode" : 0,
      "deconv_out_width" : 64,
      "pad_value" : 0,
      "Ny" : 2,
      "n_parallel" : 1
    },
    {
      "bottom" : "877_has_output_shape,882_has_output_shape",
      "alpha" : 1,
      "operation" : 0,
      "weights" : {

      },
      "fused_relu" : 0,
      "debug_info" : "lo.19",
      "top" : "lo.19",
      "type" : "elementwise",
      "name" : "lo.19",
      "beta" : 0
    },
    {
      "pad_r" : 0,
      "fused_relu" : 0,
      "fused_tanh" : 0,
      "debug_info" : "896_has_output_shape",
      "pad_fill_mode" : 0,
      "pad_b" : 0,
      "pad_l" : 0,
      "top" : "896_has_output_shape",
      "blob_weights" : 199,
      "K" : 128,
      "name" : "896_has_output_shape",
      "deconv_out_height" : 128,
      "has_batch_norm" : 0,
      "type" : "deconvolution",
      "n_groups" : 128,
      "pad_t" : 0,
      "hint_fallback_from_metal" : 1,
      "stride_y" : 2,
      "has_biases" : 0,
      "C" : 128,
      "bottom" : "squeeze_13",
      "weights" : {

      },
      "Nx" : 1,
      "pad_mode" : 0,
      "deconv_out_width" : 64,
      "pad_value" : 0,
      "Ny" : 2,
      "n_parallel" : 1
    },
    {
      "pad_r" : 0,
      "fused_relu" : 0,
      "fused_tanh" : 0,
      "debug_info" : "901_has_output_shape",
      "pad_fill_mode" : 0,
      "pad_b" : 0,
      "pad_l" : 0,
      "top" : "901_has_output_shape",
      "blob_weights" : 201,
      "K" : 128,
      "name" : "901_has_output_shape",
      "deconv_out_height" : 128,
      "has_batch_norm" : 0,
      "type" : "deconvolution",
      "n_groups" : 128,
      "pad_t" : 0,
      "hint_fallback_from_metal" : 1,
      "stride_y" : 2,
      "has_biases" : 0,
      "C" : 128,
      "bottom" : "squeeze_14",
      "weights" : {

      },
      "Nx" : 1,
      "pad_mode" : 0,
      "deconv_out_width" : 64,
      "pad_value" : 0,
      "Ny" : 2,
      "n_parallel" : 1
    },
    {
      "bottom" : "896_has_output_shape,901_has_output_shape",
      "alpha" : 1,
      "operation" : 0,
      "weights" : {

      },
      "fused_relu" : 0,
      "debug_info" : "hi.29",
      "top" : "hi.29",
      "type" : "elementwise",
      "name" : "hi.29",
      "beta" : 0
    },
    {
      "pad_r" : 0,
      "fused_relu" : 0,
      "fused_tanh" : 0,
      "debug_info" : "915_has_output_shape",
      "pad_fill_mode" : 0,
      "pad_b" : 0,
      "pad_l" : 0,
      "top" : "915_has_output_shape",
      "blob_weights" : 203,
      "K" : 128,
      "stride_x" : 2,
      "name" : "915_has_output_shape",
      "deconv_out_height" : 128,
      "has_batch_norm" : 0,
      "type" : "deconvolution",
      "n_groups" : 128,
      "pad_t" : 0,
      "hint_fallback_from_metal" : 1,
      "has_biases" : 0,
      "C" : 128,
      "bottom" : "lo.19",
      "weights" : {

      },
      "Nx" : 2,
      "pad_mode" : 0,
      "deconv_out_width" : 128,
      "pad_value" : 0,
      "Ny" : 1,
      "n_parallel" : 1
    },
    {
      "pad_r" : 0,
      "fused_relu" : 0,
      "fused_tanh" : 0,
      "debug_info" : "920_has_output_shape",
      "pad_fill_mode" : 0,
      "pad_b" : 0,
      "pad_l" : 0,
      "top" : "920_has_output_shape",
      "blob_weights" : 205,
      "K" : 128,
      "stride_x" : 2,
      "name" : "920_has_output_shape",
      "deconv_out_height" : 128,
      "has_batch_norm" : 0,
      "type" : "deconvolution",
      "n_groups" : 128,
      "pad_t" : 0,
      "hint_fallback_from_metal" : 1,
      "has_biases" : 0,
      "C" : 128,
      "bottom" : "hi.29",
      "weights" : {

      },
      "Nx" : 2,
      "pad_mode" : 0,
      "deconv_out_width" : 128,
      "pad_value" : 0,
      "Ny" : 1,
      "n_parallel" : 1
    },
    {
      "bottom" : "915_has_output_shape,920_has_output_shape",
      "alpha" : 1,
      "operation" : 0,
      "weights" : {

      },
      "fused_relu" : 0,
      "debug_info" : "x.99",
      "top" : "x.99",
      "type" : "elementwise",
      "name" : "x.99",
      "beta" : 0
    },
    {
      "nB" : 512,
      "top" : "931",
      "has_biases" : 1,
      "weights" : {

      },
      "nC" : 128,
      "blob_weights" : 209,
      "type" : "inner_product",
      "has_relu" : 0,
      "bottom" : "style",
      "blob_biases" : 207,
      "has_tanh" : 0,
      "debug_info" : "931",
      "name" : "931",
      "has_prelu" : 0
    },
    {
      "name" : "style.31",
      "weights" : {

      },
      "dst_w" : 1,
      "version" : 1,
      "dst_n" : 1,
      "dst_nd_rank" : 4,
      "type" : "reshape",
      "dst_h" : 1,
      "mode" : 0,
      "dynamic_shape" : false,
      "bottom" : "931",
      "debug_info" : "style.31",
      "dst_seq" : 1,
      "dst_k" : -1,
      "top" : "style.31"
    },
    {
      "bottom" : "style.31",
      "alpha" : 0.029462782666087151,
      "operation" : 1,
      "weights" : {

      },
      "fused_relu" : 0,
      "debug_info" : "modulation.29",
      "top" : "modulation.29",
      "type" : "elementwise",
      "name" : "modulation.29",
      "beta" : 0
    },
    {
      "bottom" : "x.99,modulation.29",
      "alpha" : 1,
      "operation" : 1,
      "weights" : {

      },
      "fused_relu" : 0,
      "debug_info" : "x.101",
      "top" : "x.101",
      "type" : "elementwise",
      "name" : "x.101",
      "beta" : 0
    },
    {
      "pad_r" : 1,
      "fused_relu" : 0,
      "fused_tanh" : 0,
      "debug_info" : "x.103",
      "pad_fill_mode" : 0,
      "pad_b" : 1,
      "pad_l" : 1,
      "top" : "x.103",
      "blob_weights" : 211,
      "K" : 128,
      "name" : "x.103",
      "has_batch_norm" : 0,
      "type" : "convolution",
      "n_groups" : 128,
      "pad_t" : 1,
      "has_biases" : 0,
      "C" : 128,
      "bottom" : "x.101",
      "weights" : {

      },
      "Nx" : 3,
      "pad_mode" : 0,
      "pad_value" : 0,
      "Ny" : 3,
      "n_parallel" : 1
    },
    {
      "pad_r" : 0,
      "fused_relu" : 0,
      "fused_tanh" : 0,
      "debug_info" : "image.19",
      "pad_fill_mode" : 0,
      "pad_b" : 0,
      "pad_l" : 0,
      "top" : "image.19",
      "blob_weights" : 215,
      "K" : 128,
      "blob_biases" : 213,
      "name" : "image.19",
      "has_batch_norm" : 0,
      "type" : "convolution",
      "n_groups" : 1,
      "pad_t" : 0,
      "has_biases" : 1,
      "C" : 256,
      "bottom" : "x.103",
      "weights" : {

      },
      "Nx" : 1,
      "pad_mode" : 0,
      "pad_value" : 0,
      "Ny" : 1,
      "n_parallel" : 1
    },
    {
      "top" : "967",
      "w" : 128,
      "h" : 128,
      "name" : "967",
      "nd_rank" : 4,
      "type" : "load_constant",
      "k" : 1,
      "bottom" : "",
      "debug_info" : "967",
      "n" : 1,
      "weights" : {

      },
      "constant_blob" : 217
    },
    {
      "bottom" : "image.19,967",
      "alpha" : 1,
      "operation" : 0,
      "weights" : {

      },
      "fused_relu" : 0,
      "debug_info" : "out.29",
      "top" : "out.29",
      "type" : "elementwise",
      "name" : "out.29",
      "beta" : 0
    },
    {
      "top" : "m.layers.4.conv1.bias",
      "w" : 1,
      "h" : 1,
      "name" : "m.layers.4.conv1.bias",
      "nd_rank" : 4,
      "type" : "load_constant",
      "k" : 256,
      "bottom" : "",
      "debug_info" : "m.layers.4.conv1.bias",
      "n" : 1,
      "weights" : {

      },
      "constant_blob" : 219
    },
    {
      "bottom" : "out.29,m.layers.4.conv1.bias",
      "alpha" : 1,
      "operation" : 0,
      "weights" : {

      },
      "fused_relu" : 0,
      "debug_info" : "input.19",
      "top" : "input.19",
      "type" : "elementwise",
      "name" : "input.19",
      "beta" : 0
    },
    {
      "alpha" : 0.20000000298023224,
      "bottom" : "input.19",
      "weights" : {

      },
      "mode" : 2,
      "debug_info" : "x.107",
      "top" : "x.107",
      "type" : "activation",
      "name" : "x.107"
    },
    {
      "nB" : 512,
      "top" : "980",
      "has_biases" : 1,
      "weights" : {

      },
      "nC" : 256,
      "blob_weights" : 223,
      "type" : "inner_product",
      "has_relu" : 0,
      "bottom" : "style",
      "blob_biases" : 221,
      "has_tanh" : 0,
      "debug_info" : "980",
      "name" : "980",
      "has_prelu" : 0
    },
    {
      "name" : "style.33",
      "weights" : {

      },
      "dst_w" : 1,
      "version" : 1,
      "dst_n" : 1,
      "dst_nd_rank" : 4,
      "type" : "reshape",
      "dst_h" : 1,
      "mode" : 0,
      "dynamic_shape" : false,
      "bottom" : "980",
      "debug_info" : "style.33",
      "dst_seq" : 1,
      "dst_k" : -1,
      "top" : "style.33"
    },
    {
      "bottom" : "style.33",
      "alpha" : 0.02083333395421505,
      "operation" : 1,
      "weights" : {

      },
      "fused_relu" : 0,
      "debug_info" : "modulation.31",
      "top" : "modulation.31",
      "type" : "elementwise",
      "name" : "modulation.31",
      "beta" : 0
    },
    {
      "bottom" : "x.107,modulation.31",
      "alpha" : 1,
      "operation" : 1,
      "weights" : {

      },
      "fused_relu" : 0,
      "debug_info" : "x.109",
      "top" : "x.109",
      "type" : "elementwise",
      "name" : "x.109",
      "beta" : 0
    },
    {
      "pad_r" : 1,
      "fused_relu" : 0,
      "fused_tanh" : 0,
      "debug_info" : "x.111",
      "pad_fill_mode" : 0,
      "pad_b" : 1,
      "pad_l" : 1,
      "top" : "x.111",
      "blob_weights" : 225,
      "K" : 256,
      "name" : "x.111",
      "has_batch_norm" : 0,
      "type" : "convolution",
      "n_groups" : 256,
      "pad_t" : 1,
      "has_biases" : 0,
      "C" : 256,
      "bottom" : "x.109",
      "weights" : {

      },
      "Nx" : 3,
      "pad_mode" : 0,
      "pad_value" : 0,
      "Ny" : 3,
      "n_parallel" : 1
    },
    {
      "pad_r" : 0,
      "fused_relu" : 0,
      "fused_tanh" : 0,
      "debug_info" : "image.21",
      "pad_fill_mode" : 0,
      "pad_b" : 0,
      "pad_l" : 0,
      "top" : "image.21",
      "blob_weights" : 229,
      "K" : 256,
      "blob_biases" : 227,
      "name" : "image.21",
      "has_batch_norm" : 0,
      "type" : "convolution",
      "n_groups" : 1,
      "pad_t" : 0,
      "has_biases" : 1,
      "C" : 256,
      "bottom" : "x.111",
      "weights" : {

      },
      "Nx" : 1,
      "pad_mode" : 0,
      "pad_value" : 0,
      "Ny" : 1,
      "n_parallel" : 1
    },
    {
      "top" : "1016",
      "w" : 128,
      "h" : 128,
      "name" : "1016",
      "nd_rank" : 4,
      "type" : "load_constant",
      "k" : 1,
      "bottom" : "",
      "debug_info" : "1016",
      "n" : 1,
      "weights" : {

      },
      "constant_blob" : 231
    },
    {
      "bottom" : "image.21,1016",
      "alpha" : 1,
      "operation" : 0,
      "weights" : {

      },
      "fused_relu" : 0,
      "debug_info" : "out.31",
      "top" : "out.31",
      "type" : "elementwise",
      "name" : "out.31",
      "beta" : 0
    },
    {
      "top" : "m.layers.4.conv2.bias",
      "w" : 1,
      "h" : 1,
      "name" : "m.layers.4.conv2.bias",
      "nd_rank" : 4,
      "type" : "load_constant",
      "k" : 256,
      "bottom" : "",
      "debug_info" : "m.layers.4.conv2.bias",
      "n" : 1,
      "weights" : {

      },
      "constant_blob" : 233
    },
    {
      "bottom" : "out.31,m.layers.4.conv2.bias",
      "alpha" : 1,
      "operation" : 0,
      "weights" : {

      },
      "fused_relu" : 0,
      "debug_info" : "input.21",
      "top" : "input.21",
      "type" : "elementwise",
      "name" : "input.21",
      "beta" : 0
    },
    {
      "alpha" : 0.20000000298023224,
      "bottom" : "input.21",
      "weights" : {

      },
      "mode" : 2,
      "debug_info" : "x.115",
      "top" : "x.115",
      "type" : "activation",
      "name" : "x.115"
    },
    {
      "nB" : 512,
      "top" : "1036",
      "has_biases" : 1,
      "weights" : {

      },
      "nC" : 256,
      "blob_weights" : 237,
      "type" : "inner_product",
      "has_relu" : 0,
      "bottom" : "style",
      "blob_biases" : 235,
      "has_tanh" : 0,
      "debug_info" : "1036",
      "name" : "1036",
      "has_prelu" : 0
    },
    {
      "name" : "1038",
      "weights" : {

      },
      "dst_w" : 1,
      "version" : 1,
      "dst_n" : 1,
      "dst_nd_rank" : 4,
      "type" : "reshape",
      "dst_h" : 1,
      "mode" : 0,
      "dynamic_shape" : false,
      "bottom" : "1036",
      "debug_info" : "1038",
      "dst_seq" : 1,
      "dst_k" : -1,
      "top" : "1038"
    },
    {
      "bottom" : "x.115,1038",
      "alpha" : 1,
      "operation" : 1,
      "weights" : {

      },
      "fused_relu" : 0,
      "debug_info" : "x.119",
      "top" : "x.119",
      "type" : "elementwise",
      "name" : "x.119",
      "beta" : 0
    },
    {
      "bottom" : "x.119",
      "end" : 64,
      "start" : 0,
      "weights" : {

      },
      "axis" : 2,
      "debug_info" : "yl.11",
      "top" : "yl.11",
      "type" : "slice",
      "name" : "yl.11"
    },
    {
      "bottom" : "x.119",
      "end" : 256,
      "start" : 64,
      "weights" : {

      },
      "axis" : 2,
      "debug_info" : "high.11",
      "top" : "high.11",
      "type" : "slice",
      "name" : "high.11"
    },
    {
      "name" : "h.23",
      "weights" : {

      },
      "dst_w" : 128,
      "version" : 1,
      "dst_n" : 64,
      "dst_nd_rank" : 5,
      "type" : "reshape",
      "dst_h" : 128,
      "mode" : 0,
      "dynamic_shape" : false,
      "bottom" : "high.11",
      "debug_info" : "h.23",
      "dst_seq" : 1,
      "dst_k" : 3,
      "top" : "h.23"
    },
    {
      "begin_104" : 0,
      "begin_63" : 0,
      "begin_59" : 0,
      "begin_64" : 0,
      "begin_105" : 0,
      "begin_65" : 0,
      "begin_0" : 0,
      "begin_70" : 0,
      "begin_66" : 0,
      "begin_106" : 0,
      "begin_110" : 0,
      "begin_2" : 0,
      "begin_71" : 0,
      "begin_67" : 0,
      "begin_68" : 0,
      "begin_107" : 0,
      "begin_111" : 0,
      "begin_4" : 0,
      "begin_72" : 0,
      "begin_73" : 0,
      "begin_69" : 0,
      "begin_6" : 0,
      "begin_74" : 0,
      "begin_108" : 0,
      "type" : "split_nd",
      "begin_8" : 0,
      "begin_112" : 0,
      "begin_75" : 0,
      "begin_10" : 0,
      "begin_80" : 0,
      "begin_76" : 0,
      "begin_109" : 0,
      "begin_113" : 0,
      "begin_11" : 0,
      "nd_axis" : 2,
      "begin_81" : 0,
      "begin_77" : 0,
      "begin_114" : 0,
      "begin_12" : 0,
      "begin_78" : 0,
      "begin_82" : 0,
      "begin_13" : 0,
      "begin_83" : 0,
      "begin_79" : 0,
      "begin_115" : 0,
      "begin_14" : 0,
      "begin_84" : 0,
      "begin_15" : 0,
      "begin_85" : 0,
      "num_splits" : 3,
      "begin_116" : 0,
      "begin_120" : 0,
      "begin_20" : 0,
      "begin_86" : 0,
      "begin_16" : 0,
      "begin_90" : 0,
      "begin_21" : 0,
      "begin_91" : 0,
      "begin_87" : 0,
      "begin_17" : 0,
      "begin_117" : 0,
      "begin_121" : 0,
      "begin_18" : 0,
      "begin_92" : 0,
      "begin_88" : 0,
      "begin_22" : 0,
      "begin_23" : 0,
      "begin_89" : 0,
      "begin_19" : 0,
      "begin_93" : 0,
      "begin_118" : 0,
      "begin_122" : 0,
      "begin_24" : 0,
      "begin_94" : 0,
      "begin_25" : 0,
      "begin_95" : 0,
      "begin_119" : 0,
      "begin_123" : 0,
      "begin_30" : 0,
      "begin_26" : 0,
      "begin_96" : 0,
      "begin_124" : 0,
      "begin_31" : 0,
      "begin_97" : 0,
      "begin_27" : 0,
      "begin_28" : 0,
      "begin_98" : 0,
      "begin_32" : 0,
      "begin_125" : 0,
      "begin_33" : 0,
      "begin_29" : 0,
      "begin_99" : 0,
      "begin_1" : 0,
      "weights" : {

      },
      "begin_34" : 0,
      "bottom" : "h.23",
      "begin_3" : 0,
      "begin_126" : 0,
      "begin_35" : 0,
      "begin_5" : 0,
      "begin_36" : 0,
      "begin_40" : 0,
      "begin_127" : 0,
      "name" : "1050",
      "begin_41" : 0,
      "begin_37" : 0,
      "begin_7" : 0,
      "begin_42" : 0,
      "begin_38" : 0,
      "begin_9" : 0,
      "begin_39" : 0,
      "begin_43" : 0,
      "begin_44" : 0,
      "begin_45" : 0,
      "begin_50" : 0,
      "begin_46" : 0,
      "begin_51" : 0,
      "begin_47" : 0,
      "begin_100" : 0,
      "begin_52" : 0,
      "debug_info" : "1050",
      "begin_48" : 0,
      "top" : "1050_0,1050_1,1050_2",
      "begin_101" : 0,
      "begin_53" : 0,
      "begin_49" : 0,
      "begin_54" : 0,
      "begin_55" : 0,
      "begin_102" : 0,
      "begin_60" : 0,
      "begin_56" : 0,
      "begin_103" : 0,
      "begin_57" : 0,
      "begin_61" : 0,
      "begin_62" : 0,
      "begin_58" : 0
    },
    {
      "size_of_axes" : 1,
      "bottom" : "1050_0",
      "axes_0" : 2,
      "weights" : {

      },
      "nd_axis" : 0,
      "debug_info" : "squeeze_15",
      "version" : 1,
      "top" : "squeeze_15",
      "type" : "squeeze",
      "name" : "squeeze_15"
    },
    {
      "size_of_axes" : 1,
      "bottom" : "1050_1",
      "axes_0" : 2,
      "weights" : {

      },
      "nd_axis" : 0,
      "debug_info" : "squeeze_16",
      "version" : 1,
      "top" : "squeeze_16",
      "type" : "squeeze",
      "name" : "squeeze_16"
    },
    {
      "size_of_axes" : 1,
      "bottom" : "1050_2",
      "axes_0" : 2,
      "weights" : {

      },
      "nd_axis" : 0,
      "debug_info" : "squeeze_17",
      "version" : 1,
      "top" : "squeeze_17",
      "type" : "squeeze",
      "name" : "squeeze_17"
    },
    {
      "pad_r" : 0,
      "fused_relu" : 0,
      "fused_tanh" : 0,
      "debug_info" : "1066_has_output_shape",
      "pad_fill_mode" : 0,
      "pad_b" : 0,
      "pad_l" : 0,
      "top" : "1066_has_output_shape",
      "blob_weights" : 239,
      "K" : 64,
      "name" : "1066_has_output_shape",
      "deconv_out_height" : 256,
      "has_batch_norm" : 0,
      "type" : "deconvolution",
      "n_groups" : 64,
      "pad_t" : 0,
      "hint_fallback_from_metal" : 1,
      "stride_y" : 2,
      "has_biases" : 0,
      "C" : 64,
      "bottom" : "yl.11",
      "weights" : {

      },
      "Nx" : 1,
      "pad_mode" : 0,
      "deconv_out_width" : 128,
      "pad_value" : 0,
      "Ny" : 2,
      "n_parallel" : 1
    },
    {
      "pad_r" : 0,
      "fused_relu" : 0,
      "fused_tanh" : 0,
      "debug_info" : "1071_has_output_shape",
      "pad_fill_mode" : 0,
      "pad_b" : 0,
      "pad_l" : 0,
      "top" : "1071_has_output_shape",
      "blob_weights" : 241,
      "K" : 64,
      "name" : "1071_has_output_shape",
      "deconv_out_height" : 256,
      "has_batch_norm" : 0,
      "type" : "deconvolution",
      "n_groups" : 64,
      "pad_t" : 0,
      "hint_fallback_from_metal" : 1,
      "stride_y" : 2,
      "has_biases" : 0,
      "C" : 64,
      "bottom" : "squeeze_15",
      "weights" : {

      },
      "Nx" : 1,
      "pad_mode" : 0,
      "deconv_out_width" : 128,
      "pad_value" : 0,
      "Ny" : 2,
      "n_parallel" : 1
    },
    {
      "bottom" : "1066_has_output_shape,1071_has_output_shape",
      "alpha" : 1,
      "operation" : 0,
      "weights" : {

      },
      "fused_relu" : 0,
      "debug_info" : "lo.23",
      "top" : "lo.23",
      "type" : "elementwise",
      "name" : "lo.23",
      "beta" : 0
    },
    {
      "pad_r" : 0,
      "fused_relu" : 0,
      "fused_tanh" : 0,
      "debug_info" : "1085_has_output_shape",
      "pad_fill_mode" : 0,
      "pad_b" : 0,
      "pad_l" : 0,
      "top" : "1085_has_output_shape",
      "blob_weights" : 243,
      "K" : 64,
      "name" : "1085_has_output_shape",
      "deconv_out_height" : 256,
      "has_batch_norm" : 0,
      "type" : "deconvolution",
      "n_groups" : 64,
      "pad_t" : 0,
      "hint_fallback_from_metal" : 1,
      "stride_y" : 2,
      "has_biases" : 0,
      "C" : 64,
      "bottom" : "squeeze_16",
      "weights" : {

      },
      "Nx" : 1,
      "pad_mode" : 0,
      "deconv_out_width" : 128,
      "pad_value" : 0,
      "Ny" : 2,
      "n_parallel" : 1
    },
    {
      "pad_r" : 0,
      "fused_relu" : 0,
      "fused_tanh" : 0,
      "debug_info" : "1090_has_output_shape",
      "pad_fill_mode" : 0,
      "pad_b" : 0,
      "pad_l" : 0,
      "top" : "1090_has_output_shape",
      "blob_weights" : 245,
      "K" : 64,
      "name" : "1090_has_output_shape",
      "deconv_out_height" : 256,
      "has_batch_norm" : 0,
      "type" : "deconvolution",
      "n_groups" : 64,
      "pad_t" : 0,
      "hint_fallback_from_metal" : 1,
      "stride_y" : 2,
      "has_biases" : 0,
      "C" : 64,
      "bottom" : "squeeze_17",
      "weights" : {

      },
      "Nx" : 1,
      "pad_mode" : 0,
      "deconv_out_width" : 128,
      "pad_value" : 0,
      "Ny" : 2,
      "n_parallel" : 1
    },
    {
      "bottom" : "1085_has_output_shape,1090_has_output_shape",
      "alpha" : 1,
      "operation" : 0,
      "weights" : {

      },
      "fused_relu" : 0,
      "debug_info" : "hi.35",
      "top" : "hi.35",
      "type" : "elementwise",
      "name" : "hi.35",
      "beta" : 0
    },
    {
      "pad_r" : 0,
      "fused_relu" : 0,
      "fused_tanh" : 0,
      "debug_info" : "1104_has_output_shape",
      "pad_fill_mode" : 0,
      "pad_b" : 0,
      "pad_l" : 0,
      "top" : "1104_has_output_shape",
      "blob_weights" : 247,
      "K" : 64,
      "stride_x" : 2,
      "name" : "1104_has_output_shape",
      "deconv_out_height" : 256,
      "has_batch_norm" : 0,
      "type" : "deconvolution",
      "n_groups" : 64,
      "pad_t" : 0,
      "hint_fallback_from_metal" : 1,
      "has_biases" : 0,
      "C" : 64,
      "bottom" : "lo.23",
      "weights" : {

      },
      "Nx" : 2,
      "pad_mode" : 0,
      "deconv_out_width" : 256,
      "pad_value" : 0,
      "Ny" : 1,
      "n_parallel" : 1
    },
    {
      "pad_r" : 0,
      "fused_relu" : 0,
      "fused_tanh" : 0,
      "debug_info" : "1109_has_output_shape",
      "pad_fill_mode" : 0,
      "pad_b" : 0,
      "pad_l" : 0,
      "top" : "1109_has_output_shape",
      "blob_weights" : 249,
      "K" : 64,
      "stride_x" : 2,
      "name" : "1109_has_output_shape",
      "deconv_out_height" : 256,
      "has_batch_norm" : 0,
      "type" : "deconvolution",
      "n_groups" : 64,
      "pad_t" : 0,
      "hint_fallback_from_metal" : 1,
      "has_biases" : 0,
      "C" : 64,
      "bottom" : "hi.35",
      "weights" : {

      },
      "Nx" : 2,
      "pad_mode" : 0,
      "deconv_out_width" : 256,
      "pad_value" : 0,
      "Ny" : 1,
      "n_parallel" : 1
    },
    {
      "bottom" : "1104_has_output_shape,1109_has_output_shape",
      "alpha" : 1,
      "operation" : 0,
      "weights" : {

      },
      "fused_relu" : 0,
      "debug_info" : "x.121",
      "top" : "x.121",
      "type" : "elementwise",
      "name" : "x.121",
      "beta" : 0
    },
    {
      "nB" : 512,
      "top" : "1120",
      "has_biases" : 1,
      "weights" : {

      },
      "nC" : 64,
      "blob_weights" : 253,
      "type" : "inner_product",
      "has_relu" : 0,
      "bottom" : "style",
      "blob_biases" : 251,
      "has_tanh" : 0,
      "debug_info" : "1120",
      "name" : "1120",
      "has_prelu" : 0
    },
    {
      "name" : "style.37",
      "weights" : {

      },
      "dst_w" : 1,
      "version" : 1,
      "dst_n" : 1,
      "dst_nd_rank" : 4,
      "type" : "reshape",
      "dst_h" : 1,
      "mode" : 0,
      "dynamic_shape" : false,
      "bottom" : "1120",
      "debug_info" : "style.37",
      "dst_seq" : 1,
      "dst_k" : -1,
      "top" : "style.37"
    },
    {
      "bottom" : "style.37",
      "alpha" : 0.041666667908430099,
      "operation" : 1,
      "weights" : {

      },
      "fused_relu" : 0,
      "debug_info" : "modulation.35",
      "top" : "modulation.35",
      "type" : "elementwise",
      "name" : "modulation.35",
      "beta" : 0
    },
    {
      "bottom" : "x.121,modulation.35",
      "alpha" : 1,
      "operation" : 1,
      "weights" : {

      },
      "fused_relu" : 0,
      "debug_info" : "x.123",
      "top" : "x.123",
      "type" : "elementwise",
      "name" : "x.123",
      "beta" : 0
    },
    {
      "pad_r" : 1,
      "fused_relu" : 0,
      "fused_tanh" : 0,
      "debug_info" : "x.125",
      "pad_fill_mode" : 0,
      "pad_b" : 1,
      "pad_l" : 1,
      "top" : "x.125",
      "blob_weights" : 255,
      "K" : 64,
      "name" : "x.125",
      "has_batch_norm" : 0,
      "type" : "convolution",
      "n_groups" : 64,
      "pad_t" : 1,
      "has_biases" : 0,
      "C" : 64,
      "bottom" : "x.123",
      "weights" : {

      },
      "Nx" : 3,
      "pad_mode" : 0,
      "pad_value" : 0,
      "Ny" : 3,
      "n_parallel" : 1
    },
    {
      "pad_r" : 0,
      "fused_relu" : 0,
      "fused_tanh" : 0,
      "debug_info" : "image.23",
      "pad_fill_mode" : 0,
      "pad_b" : 0,
      "pad_l" : 0,
      "top" : "image.23",
      "blob_weights" : 259,
      "K" : 64,
      "blob_biases" : 257,
      "name" : "image.23",
      "has_batch_norm" : 0,
      "type" : "convolution",
      "n_groups" : 1,
      "pad_t" : 0,
      "has_biases" : 1,
      "C" : 128,
      "bottom" : "x.125",
      "weights" : {

      },
      "Nx" : 1,
      "pad_mode" : 0,
      "pad_value" : 0,
      "Ny" : 1,
      "n_parallel" : 1
    },
    {
      "top" : "1156",
      "w" : 256,
      "h" : 256,
      "name" : "1156",
      "nd_rank" : 4,
      "type" : "load_constant",
      "k" : 1,
      "bottom" : "",
      "debug_info" : "1156",
      "n" : 1,
      "weights" : {

      },
      "constant_blob" : 261
    },
    {
      "bottom" : "image.23,1156",
      "alpha" : 1,
      "operation" : 0,
      "weights" : {

      },
      "fused_relu" : 0,
      "debug_info" : "out.35",
      "top" : "out.35",
      "type" : "elementwise",
      "name" : "out.35",
      "beta" : 0
    },
    {
      "top" : "m.layers.5.conv1.bias",
      "w" : 1,
      "h" : 1,
      "name" : "m.layers.5.conv1.bias",
      "nd_rank" : 4,
      "type" : "load_constant",
      "k" : 128,
      "bottom" : "",
      "debug_info" : "m.layers.5.conv1.bias",
      "n" : 1,
      "weights" : {

      },
      "constant_blob" : 263
    },
    {
      "bottom" : "out.35,m.layers.5.conv1.bias",
      "alpha" : 1,
      "operation" : 0,
      "weights" : {

      },
      "fused_relu" : 0,
      "debug_info" : "input.23",
      "top" : "input.23",
      "type" : "elementwise",
      "name" : "input.23",
      "beta" : 0
    },
    {
      "alpha" : 0.20000000298023224,
      "bottom" : "input.23",
      "weights" : {

      },
      "mode" : 2,
      "debug_info" : "x.129",
      "top" : "x.129",
      "type" : "activation",
      "name" : "x.129"
    },
    {
      "nB" : 512,
      "top" : "1169",
      "has_biases" : 1,
      "weights" : {

      },
      "nC" : 128,
      "blob_weights" : 267,
      "type" : "inner_product",
      "has_relu" : 0,
      "bottom" : "style",
      "blob_biases" : 265,
      "has_tanh" : 0,
      "debug_info" : "1169",
      "name" : "1169",
      "has_prelu" : 0
    },
    {
      "name" : "style.39",
      "weights" : {

      },
      "dst_w" : 1,
      "version" : 1,
      "dst_n" : 1,
      "dst_nd_rank" : 4,
      "type" : "reshape",
      "dst_h" : 1,
      "mode" : 0,
      "dynamic_shape" : false,
      "bottom" : "1169",
      "debug_info" : "style.39",
      "dst_seq" : 1,
      "dst_k" : -1,
      "top" : "style.39"
    },
    {
      "bottom" : "style.39",
      "alpha" : 0.029462782666087151,
      "operation" : 1,
      "weights" : {

      },
      "fused_relu" : 0,
      "debug_info" : "modulation.37",
      "top" : "modulation.37",
      "type" : "elementwise",
      "name" : "modulation.37",
      "beta" : 0
    },
    {
      "bottom" : "x.129,modulation.37",
      "alpha" : 1,
      "operation" : 1,
      "weights" : {

      },
      "fused_relu" : 0,
      "debug_info" : "x.131",
      "top" : "x.131",
      "type" : "elementwise",
      "name" : "x.131",
      "beta" : 0
    },
    {
      "pad_r" : 1,
      "fused_relu" : 0,
      "fused_tanh" : 0,
      "debug_info" : "x.133",
      "pad_fill_mode" : 0,
      "pad_b" : 1,
      "pad_l" : 1,
      "top" : "x.133",
      "blob_weights" : 269,
      "K" : 128,
      "name" : "x.133",
      "has_batch_norm" : 0,
      "type" : "convolution",
      "n_groups" : 128,
      "pad_t" : 1,
      "has_biases" : 0,
      "C" : 128,
      "bottom" : "x.131",
      "weights" : {

      },
      "Nx" : 3,
      "pad_mode" : 0,
      "pad_value" : 0,
      "Ny" : 3,
      "n_parallel" : 1
    },
    {
      "pad_r" : 0,
      "fused_relu" : 0,
      "fused_tanh" : 0,
      "debug_info" : "image.25",
      "pad_fill_mode" : 0,
      "pad_b" : 0,
      "pad_l" : 0,
      "top" : "image.25",
      "blob_weights" : 273,
      "K" : 128,
      "blob_biases" : 271,
      "name" : "image.25",
      "has_batch_norm" : 0,
      "type" : "convolution",
      "n_groups" : 1,
      "pad_t" : 0,
      "has_biases" : 1,
      "C" : 128,
      "bottom" : "x.133",
      "weights" : {

      },
      "Nx" : 1,
      "pad_mode" : 0,
      "pad_value" : 0,
      "Ny" : 1,
      "n_parallel" : 1
    },
    {
      "top" : "1205",
      "w" : 256,
      "h" : 256,
      "name" : "1205",
      "nd_rank" : 4,
      "type" : "load_constant",
      "k" : 1,
      "bottom" : "",
      "debug_info" : "1205",
      "n" : 1,
      "weights" : {

      },
      "constant_blob" : 275
    },
    {
      "bottom" : "image.25,1205",
      "alpha" : 1,
      "operation" : 0,
      "weights" : {

      },
      "fused_relu" : 0,
      "debug_info" : "out.37",
      "top" : "out.37",
      "type" : "elementwise",
      "name" : "out.37",
      "beta" : 0
    },
    {
      "top" : "m.layers.5.conv2.bias",
      "w" : 1,
      "h" : 1,
      "name" : "m.layers.5.conv2.bias",
      "nd_rank" : 4,
      "type" : "load_constant",
      "k" : 128,
      "bottom" : "",
      "debug_info" : "m.layers.5.conv2.bias",
      "n" : 1,
      "weights" : {

      },
      "constant_blob" : 277
    },
    {
      "bottom" : "out.37,m.layers.5.conv2.bias",
      "alpha" : 1,
      "operation" : 0,
      "weights" : {

      },
      "fused_relu" : 0,
      "debug_info" : "input.25",
      "top" : "input.25",
      "type" : "elementwise",
      "name" : "input.25",
      "beta" : 0
    },
    {
      "alpha" : 0.20000000298023224,
      "bottom" : "input.25",
      "weights" : {

      },
      "mode" : 2,
      "debug_info" : "x.137",
      "top" : "x.137",
      "type" : "activation",
      "name" : "x.137"
    },
    {
      "nB" : 512,
      "top" : "1226",
      "has_biases" : 1,
      "weights" : {

      },
      "nC" : 128,
      "blob_weights" : 281,
      "type" : "inner_product",
      "has_relu" : 0,
      "bottom" : "style",
      "blob_biases" : 279,
      "has_tanh" : 0,
      "debug_info" : "1226",
      "name" : "1226",
      "has_prelu" : 0
    },
    {
      "name" : "1228",
      "weights" : {

      },
      "dst_w" : 1,
      "version" : 1,
      "dst_n" : 1,
      "dst_nd_rank" : 4,
      "type" : "reshape",
      "dst_h" : 1,
      "mode" : 0,
      "dynamic_shape" : false,
      "bottom" : "1226",
      "debug_info" : "1228",
      "dst_seq" : 1,
      "dst_k" : -1,
      "top" : "1228"
    },
    {
      "bottom" : "x.137,1228",
      "alpha" : 1,
      "operation" : 1,
      "weights" : {

      },
      "fused_relu" : 0,
      "debug_info" : "x.141",
      "top" : "x.141",
      "type" : "elementwise",
      "name" : "x.141",
      "beta" : 0
    },
    {
      "bottom" : "x.141",
      "end" : 32,
      "start" : 0,
      "weights" : {

      },
      "axis" : 2,
      "debug_info" : "yl.13",
      "top" : "yl.13",
      "type" : "slice",
      "name" : "yl.13"
    },
    {
      "bottom" : "x.141",
      "end" : 128,
      "start" : 32,
      "weights" : {

      },
      "axis" : 2,
      "debug_info" : "high",
      "top" : "high",
      "type" : "slice",
      "name" : "high"
    },
    {
      "name" : "h.27",
      "weights" : {

      },
      "dst_w" : 256,
      "version" : 1,
      "dst_n" : 32,
      "dst_nd_rank" : 5,
      "type" : "reshape",
      "dst_h" : 256,
      "mode" : 0,
      "dynamic_shape" : false,
      "bottom" : "high",
      "debug_info" : "h.27",
      "dst_seq" : 1,
      "dst_k" : 3,
      "top" : "h.27"
    },
    {
      "begin_104" : 0,
      "begin_63" : 0,
      "begin_59" : 0,
      "begin_64" : 0,
      "begin_105" : 0,
      "begin_65" : 0,
      "begin_0" : 0,
      "begin_70" : 0,
      "begin_66" : 0,
      "begin_106" : 0,
      "begin_110" : 0,
      "begin_2" : 0,
      "begin_71" : 0,
      "begin_67" : 0,
      "begin_68" : 0,
      "begin_107" : 0,
      "begin_111" : 0,
      "begin_4" : 0,
      "begin_72" : 0,
      "begin_73" : 0,
      "begin_69" : 0,
      "begin_6" : 0,
      "begin_74" : 0,
      "begin_108" : 0,
      "type" : "split_nd",
      "begin_8" : 0,
      "begin_112" : 0,
      "begin_75" : 0,
      "begin_10" : 0,
      "begin_80" : 0,
      "begin_76" : 0,
      "begin_109" : 0,
      "begin_113" : 0,
      "begin_11" : 0,
      "nd_axis" : 2,
      "begin_81" : 0,
      "begin_77" : 0,
      "begin_114" : 0,
      "begin_12" : 0,
      "begin_78" : 0,
      "begin_82" : 0,
      "begin_13" : 0,
      "begin_83" : 0,
      "begin_79" : 0,
      "begin_115" : 0,
      "begin_14" : 0,
      "begin_84" : 0,
      "begin_15" : 0,
      "begin_85" : 0,
      "num_splits" : 3,
      "begin_116" : 0,
      "begin_120" : 0,
      "begin_20" : 0,
      "begin_86" : 0,
      "begin_16" : 0,
      "begin_90" : 0,
      "begin_21" : 0,
      "begin_91" : 0,
      "begin_87" : 0,
      "begin_17" : 0,
      "begin_117" : 0,
      "begin_121" : 0,
      "begin_18" : 0,
      "begin_92" : 0,
      "begin_88" : 0,
      "begin_22" : 0,
      "begin_23" : 0,
      "begin_89" : 0,
      "begin_19" : 0,
      "begin_93" : 0,
      "begin_118" : 0,
      "begin_122" : 0,
      "begin_24" : 0,
      "begin_94" : 0,
      "begin_25" : 0,
      "begin_95" : 0,
      "begin_119" : 0,
      "begin_123" : 0,
      "begin_30" : 0,
      "begin_26" : 0,
      "begin_96" : 0,
      "begin_124" : 0,
      "begin_31" : 0,
      "begin_97" : 0,
      "begin_27" : 0,
      "begin_28" : 0,
      "begin_98" : 0,
      "begin_32" : 0,
      "begin_125" : 0,
      "begin_33" : 0,
      "begin_29" : 0,
      "begin_99" : 0,
      "begin_1" : 0,
      "weights" : {

      },
      "begin_34" : 0,
      "bottom" : "h.27",
      "begin_3" : 0,
      "begin_126" : 0,
      "begin_35" : 0,
      "begin_5" : 0,
      "begin_36" : 0,
      "begin_40" : 0,
      "begin_127" : 0,
      "name" : "1240",
      "begin_41" : 0,
      "begin_37" : 0,
      "begin_7" : 0,
      "begin_42" : 0,
      "begin_38" : 0,
      "begin_9" : 0,
      "begin_39" : 0,
      "begin_43" : 0,
      "begin_44" : 0,
      "begin_45" : 0,
      "begin_50" : 0,
      "begin_46" : 0,
      "begin_51" : 0,
      "begin_47" : 0,
      "begin_100" : 0,
      "begin_52" : 0,
      "debug_info" : "1240",
      "begin_48" : 0,
      "top" : "1240_0,1240_1,1240_2",
      "begin_101" : 0,
      "begin_53" : 0,
      "begin_49" : 0,
      "begin_54" : 0,
      "begin_55" : 0,
      "begin_102" : 0,
      "begin_60" : 0,
      "begin_56" : 0,
      "begin_103" : 0,
      "begin_57" : 0,
      "begin_61" : 0,
      "begin_62" : 0,
      "begin_58" : 0
    },
    {
      "size_of_axes" : 1,
      "bottom" : "1240_0",
      "axes_0" : 2,
      "weights" : {

      },
      "nd_axis" : 0,
      "debug_info" : "squeeze_18",
      "version" : 1,
      "top" : "squeeze_18",
      "type" : "squeeze",
      "name" : "squeeze_18"
    },
    {
      "size_of_axes" : 1,
      "bottom" : "1240_1",
      "axes_0" : 2,
      "weights" : {

      },
      "nd_axis" : 0,
      "debug_info" : "squeeze_19",
      "version" : 1,
      "top" : "squeeze_19",
      "type" : "squeeze",
      "name" : "squeeze_19"
    },
    {
      "size_of_axes" : 1,
      "bottom" : "1240_2",
      "axes_0" : 2,
      "weights" : {

      },
      "nd_axis" : 0,
      "debug_info" : "squeeze_20",
      "version" : 1,
      "top" : "squeeze_20",
      "type" : "squeeze",
      "name" : "squeeze_20"
    },
    {
      "pad_r" : 0,
      "fused_relu" : 0,
      "fused_tanh" : 0,
      "debug_info" : "1256_has_output_shape",
      "pad_fill_mode" : 0,
      "pad_b" : 0,
      "pad_l" : 0,
      "top" : "1256_has_output_shape",
      "blob_weights" : 283,
      "K" : 32,
      "name" : "1256_has_output_shape",
      "deconv_out_height" : 512,
      "has_batch_norm" : 0,
      "type" : "deconvolution",
      "n_groups" : 32,
      "pad_t" : 0,
      "hint_fallback_from_metal" : 1,
      "stride_y" : 2,
      "has_biases" : 0,
      "C" : 32,
      "bottom" : "yl.13",
      "weights" : {

      },
      "Nx" : 1,
      "pad_mode" : 0,
      "deconv_out_width" : 256,
      "pad_value" : 0,
      "Ny" : 2,
      "n_parallel" : 1
    },
    {
      "pad_r" : 0,
      "fused_relu" : 0,
      "fused_tanh" : 0,
      "debug_info" : "1261_has_output_shape",
      "pad_fill_mode" : 0,
      "pad_b" : 0,
      "pad_l" : 0,
      "top" : "1261_has_output_shape",
      "blob_weights" : 285,
      "K" : 32,
      "name" : "1261_has_output_shape",
      "deconv_out_height" : 512,
      "has_batch_norm" : 0,
      "type" : "deconvolution",
      "n_groups" : 32,
      "pad_t" : 0,
      "hint_fallback_from_metal" : 1,
      "stride_y" : 2,
      "has_biases" : 0,
      "C" : 32,
      "bottom" : "squeeze_18",
      "weights" : {

      },
      "Nx" : 1,
      "pad_mode" : 0,
      "deconv_out_width" : 256,
      "pad_value" : 0,
      "Ny" : 2,
      "n_parallel" : 1
    },
    {
      "bottom" : "1256_has_output_shape,1261_has_output_shape",
      "alpha" : 1,
      "operation" : 0,
      "weights" : {

      },
      "fused_relu" : 0,
      "debug_info" : "lo.27",
      "top" : "lo.27",
      "type" : "elementwise",
      "name" : "lo.27",
      "beta" : 0
    },
    {
      "pad_r" : 0,
      "fused_relu" : 0,
      "fused_tanh" : 0,
      "debug_info" : "1275_has_output_shape",
      "pad_fill_mode" : 0,
      "pad_b" : 0,
      "pad_l" : 0,
      "top" : "1275_has_output_shape",
      "blob_weights" : 287,
      "K" : 32,
      "name" : "1275_has_output_shape",
      "deconv_out_height" : 512,
      "has_batch_norm" : 0,
      "type" : "deconvolution",
      "n_groups" : 32,
      "pad_t" : 0,
      "hint_fallback_from_metal" : 1,
      "stride_y" : 2,
      "has_biases" : 0,
      "C" : 32,
      "bottom" : "squeeze_19",
      "weights" : {

      },
      "Nx" : 1,
      "pad_mode" : 0,
      "deconv_out_width" : 256,
      "pad_value" : 0,
      "Ny" : 2,
      "n_parallel" : 1
    },
    {
      "pad_r" : 0,
      "fused_relu" : 0,
      "fused_tanh" : 0,
      "debug_info" : "1280_has_output_shape",
      "pad_fill_mode" : 0,
      "pad_b" : 0,
      "pad_l" : 0,
      "top" : "1280_has_output_shape",
      "blob_weights" : 289,
      "K" : 32,
      "name" : "1280_has_output_shape",
      "deconv_out_height" : 512,
      "has_batch_norm" : 0,
      "type" : "deconvolution",
      "n_groups" : 32,
      "pad_t" : 0,
      "hint_fallback_from_metal" : 1,
      "stride_y" : 2,
      "has_biases" : 0,
      "C" : 32,
      "bottom" : "squeeze_20",
      "weights" : {

      },
      "Nx" : 1,
      "pad_mode" : 0,
      "deconv_out_width" : 256,
      "pad_value" : 0,
      "Ny" : 2,
      "n_parallel" : 1
    },
    {
      "bottom" : "1275_has_output_shape,1280_has_output_shape",
      "alpha" : 1,
      "operation" : 0,
      "weights" : {

      },
      "fused_relu" : 0,
      "debug_info" : "hi.41",
      "top" : "hi.41",
      "type" : "elementwise",
      "name" : "hi.41",
      "beta" : 0
    },
    {
      "pad_r" : 0,
      "fused_relu" : 0,
      "fused_tanh" : 0,
      "debug_info" : "1294_has_output_shape",
      "pad_fill_mode" : 0,
      "pad_b" : 0,
      "pad_l" : 0,
      "top" : "1294_has_output_shape",
      "blob_weights" : 291,
      "K" : 32,
      "stride_x" : 2,
      "name" : "1294_has_output_shape",
      "deconv_out_height" : 512,
      "has_batch_norm" : 0,
      "type" : "deconvolution",
      "n_groups" : 32,
      "pad_t" : 0,
      "hint_fallback_from_metal" : 1,
      "has_biases" : 0,
      "C" : 32,
      "bottom" : "lo.27",
      "weights" : {

      },
      "Nx" : 2,
      "pad_mode" : 0,
      "deconv_out_width" : 512,
      "pad_value" : 0,
      "Ny" : 1,
      "n_parallel" : 1
    },
    {
      "pad_r" : 0,
      "fused_relu" : 0,
      "fused_tanh" : 0,
      "debug_info" : "1299_has_output_shape",
      "pad_fill_mode" : 0,
      "pad_b" : 0,
      "pad_l" : 0,
      "top" : "1299_has_output_shape",
      "blob_weights" : 293,
      "K" : 32,
      "stride_x" : 2,
      "name" : "1299_has_output_shape",
      "deconv_out_height" : 512,
      "has_batch_norm" : 0,
      "type" : "deconvolution",
      "n_groups" : 32,
      "pad_t" : 0,
      "hint_fallback_from_metal" : 1,
      "has_biases" : 0,
      "C" : 32,
      "bottom" : "hi.41",
      "weights" : {

      },
      "Nx" : 2,
      "pad_mode" : 0,
      "deconv_out_width" : 512,
      "pad_value" : 0,
      "Ny" : 1,
      "n_parallel" : 1
    },
    {
      "bottom" : "1294_has_output_shape,1299_has_output_shape",
      "alpha" : 1,
      "operation" : 0,
      "weights" : {

      },
      "fused_relu" : 0,
      "debug_info" : "x.143",
      "top" : "x.143",
      "type" : "elementwise",
      "name" : "x.143",
      "beta" : 0
    },
    {
      "nB" : 512,
      "top" : "1310",
      "has_biases" : 1,
      "weights" : {

      },
      "nC" : 32,
      "blob_weights" : 297,
      "type" : "inner_product",
      "has_relu" : 0,
      "bottom" : "style",
      "blob_biases" : 295,
      "has_tanh" : 0,
      "debug_info" : "1310",
      "name" : "1310",
      "has_prelu" : 0
    },
    {
      "name" : "style.43",
      "weights" : {

      },
      "dst_w" : 1,
      "version" : 1,
      "dst_n" : 1,
      "dst_nd_rank" : 4,
      "type" : "reshape",
      "dst_h" : 1,
      "mode" : 0,
      "dynamic_shape" : false,
      "bottom" : "1310",
      "debug_info" : "style.43",
      "dst_seq" : 1,
      "dst_k" : -1,
      "top" : "style.43"
    },
    {
      "bottom" : "style.43",
      "alpha" : 0.058925565332174301,
      "operation" : 1,
      "weights" : {

      },
      "fused_relu" : 0,
      "debug_info" : "modulation.41",
      "top" : "modulation.41",
      "type" : "elementwise",
      "name" : "modulation.41",
      "beta" : 0
    },
    {
      "bottom" : "x.143,modulation.41",
      "alpha" : 1,
      "operation" : 1,
      "weights" : {

      },
      "fused_relu" : 0,
      "debug_info" : "x.145",
      "top" : "x.145",
      "type" : "elementwise",
      "name" : "x.145",
      "beta" : 0
    },
    {
      "pad_r" : 1,
      "fused_relu" : 0,
      "fused_tanh" : 0,
      "debug_info" : "x.147",
      "pad_fill_mode" : 0,
      "pad_b" : 1,
      "pad_l" : 1,
      "top" : "x.147",
      "blob_weights" : 299,
      "K" : 32,
      "name" : "x.147",
      "has_batch_norm" : 0,
      "type" : "convolution",
      "n_groups" : 32,
      "pad_t" : 1,
      "has_biases" : 0,
      "C" : 32,
      "bottom" : "x.145",
      "weights" : {

      },
      "Nx" : 3,
      "pad_mode" : 0,
      "pad_value" : 0,
      "Ny" : 3,
      "n_parallel" : 1
    },
    {
      "pad_r" : 0,
      "fused_relu" : 0,
      "fused_tanh" : 0,
      "debug_info" : "image.27",
      "pad_fill_mode" : 0,
      "pad_b" : 0,
      "pad_l" : 0,
      "top" : "image.27",
      "blob_weights" : 303,
      "K" : 32,
      "blob_biases" : 301,
      "name" : "image.27",
      "has_batch_norm" : 0,
      "type" : "convolution",
      "n_groups" : 1,
      "pad_t" : 0,
      "has_biases" : 1,
      "C" : 64,
      "bottom" : "x.147",
      "weights" : {

      },
      "Nx" : 1,
      "pad_mode" : 0,
      "pad_value" : 0,
      "Ny" : 1,
      "n_parallel" : 1
    },
    {
      "top" : "1346",
      "w" : 512,
      "h" : 512,
      "name" : "1346",
      "nd_rank" : 4,
      "type" : "load_constant",
      "k" : 1,
      "bottom" : "",
      "debug_info" : "1346",
      "n" : 1,
      "weights" : {

      },
      "constant_blob" : 305
    },
    {
      "bottom" : "image.27,1346",
      "alpha" : 1,
      "operation" : 0,
      "weights" : {

      },
      "fused_relu" : 0,
      "debug_info" : "out.41",
      "top" : "out.41",
      "type" : "elementwise",
      "name" : "out.41",
      "beta" : 0
    },
    {
      "top" : "m.layers.6.conv1.bias",
      "w" : 1,
      "h" : 1,
      "name" : "m.layers.6.conv1.bias",
      "nd_rank" : 4,
      "type" : "load_constant",
      "k" : 64,
      "bottom" : "",
      "debug_info" : "m.layers.6.conv1.bias",
      "n" : 1,
      "weights" : {

      },
      "constant_blob" : 307
    },
    {
      "bottom" : "out.41,m.layers.6.conv1.bias",
      "alpha" : 1,
      "operation" : 0,
      "weights" : {

      },
      "fused_relu" : 0,
      "debug_info" : "input.27",
      "top" : "input.27",
      "type" : "elementwise",
      "name" : "input.27",
      "beta" : 0
    },
    {
      "alpha" : 0.20000000298023224,
      "bottom" : "input.27",
      "weights" : {

      },
      "mode" : 2,
      "debug_info" : "x.151",
      "top" : "x.151",
      "type" : "activation",
      "name" : "x.151"
    },
    {
      "nB" : 512,
      "top" : "1359",
      "has_biases" : 1,
      "weights" : {

      },
      "nC" : 64,
      "blob_weights" : 311,
      "type" : "inner_product",
      "has_relu" : 0,
      "bottom" : "style",
      "blob_biases" : 309,
      "has_tanh" : 0,
      "debug_info" : "1359",
      "name" : "1359",
      "has_prelu" : 0
    },
    {
      "name" : "style.45",
      "weights" : {

      },
      "dst_w" : 1,
      "version" : 1,
      "dst_n" : 1,
      "dst_nd_rank" : 4,
      "type" : "reshape",
      "dst_h" : 1,
      "mode" : 0,
      "dynamic_shape" : false,
      "bottom" : "1359",
      "debug_info" : "style.45",
      "dst_seq" : 1,
      "dst_k" : -1,
      "top" : "style.45"
    },
    {
      "bottom" : "style.45",
      "alpha" : 0.041666667908430099,
      "operation" : 1,
      "weights" : {

      },
      "fused_relu" : 0,
      "debug_info" : "modulation.43",
      "top" : "modulation.43",
      "type" : "elementwise",
      "name" : "modulation.43",
      "beta" : 0
    },
    {
      "bottom" : "x.151,modulation.43",
      "alpha" : 1,
      "operation" : 1,
      "weights" : {

      },
      "fused_relu" : 0,
      "debug_info" : "x.153",
      "top" : "x.153",
      "type" : "elementwise",
      "name" : "x.153",
      "beta" : 0
    },
    {
      "pad_r" : 1,
      "fused_relu" : 0,
      "fused_tanh" : 0,
      "debug_info" : "x.155",
      "pad_fill_mode" : 0,
      "pad_b" : 1,
      "pad_l" : 1,
      "top" : "x.155",
      "blob_weights" : 313,
      "K" : 64,
      "name" : "x.155",
      "has_batch_norm" : 0,
      "type" : "convolution",
      "n_groups" : 64,
      "pad_t" : 1,
      "has_biases" : 0,
      "C" : 64,
      "bottom" : "x.153",
      "weights" : {

      },
      "Nx" : 3,
      "pad_mode" : 0,
      "pad_value" : 0,
      "Ny" : 3,
      "n_parallel" : 1
    },
    {
      "pad_r" : 0,
      "fused_relu" : 0,
      "fused_tanh" : 0,
      "debug_info" : "image",
      "pad_fill_mode" : 0,
      "pad_b" : 0,
      "pad_l" : 0,
      "top" : "image",
      "blob_weights" : 317,
      "K" : 64,
      "blob_biases" : 315,
      "name" : "image",
      "has_batch_norm" : 0,
      "type" : "convolution",
      "n_groups" : 1,
      "pad_t" : 0,
      "has_biases" : 1,
      "C" : 64,
      "bottom" : "x.155",
      "weights" : {

      },
      "Nx" : 1,
      "pad_mode" : 0,
      "pad_value" : 0,
      "Ny" : 1,
      "n_parallel" : 1
    },
    {
      "top" : "1395",
      "w" : 512,
      "h" : 512,
      "name" : "1395",
      "nd_rank" : 4,
      "type" : "load_constant",
      "k" : 1,
      "bottom" : "",
      "debug_info" : "1395",
      "n" : 1,
      "weights" : {

      },
      "constant_blob" : 319
    },
    {
      "bottom" : "image,1395",
      "alpha" : 1,
      "operation" : 0,
      "weights" : {

      },
      "fused_relu" : 0,
      "debug_info" : "out.43",
      "top" : "out.43",
      "type" : "elementwise",
      "name" : "out.43",
      "beta" : 0
    },
    {
      "top" : "m.layers.6.conv2.bias",
      "w" : 1,
      "h" : 1,
      "name" : "m.layers.6.conv2.bias",
      "nd_rank" : 4,
      "type" : "load_constant",
      "k" : 64,
      "bottom" : "",
      "debug_info" : "m.layers.6.conv2.bias",
      "n" : 1,
      "weights" : {

      },
      "constant_blob" : 321
    },
    {
      "bottom" : "out.43,m.layers.6.conv2.bias",
      "alpha" : 1,
      "operation" : 0,
      "weights" : {

      },
      "fused_relu" : 0,
      "debug_info" : "input.29",
      "top" : "input.29",
      "type" : "elementwise",
      "name" : "input.29",
      "beta" : 0
    },
    {
      "alpha" : 0.20000000298023224,
      "bottom" : "input.29",
      "weights" : {

      },
      "mode" : 2,
      "debug_info" : "x.159",
      "top" : "x.159",
      "type" : "activation",
      "name" : "x.159"
    },
    {
      "nB" : 512,
      "top" : "1405",
      "has_biases" : 1,
      "weights" : {

      },
      "nC" : 64,
      "blob_weights" : 325,
      "type" : "inner_product",
      "has_relu" : 0,
      "bottom" : "style",
      "blob_biases" : 323,
      "has_tanh" : 0,
      "debug_info" : "1405",
      "name" : "1405",
      "has_prelu" : 0
    },
    {
      "name" : "style",
      "weights" : {

      },
      "dst_w" : 1,
      "version" : 1,
      "dst_n" : 1,
      "dst_nd_rank" : 4,
      "type" : "reshape",
      "dst_h" : 1,
      "mode" : 0,
      "dynamic_shape" : false,
      "bottom" : "1405",
      "debug_info" : "style",
      "dst_seq" : 1,
      "dst_k" : -1,
      "top" : "style_1"
    },
    {
      "bottom" : "style_1",
      "alpha" : 0.125,
      "operation" : 1,
      "weights" : {

      },
      "fused_relu" : 0,
      "debug_info" : "modulation.45",
      "top" : "modulation.45",
      "type" : "elementwise",
      "name" : "modulation.45",
      "beta" : 0
    },
    {
      "bottom" : "x.159,modulation.45",
      "alpha" : 1,
      "operation" : 1,
      "weights" : {

      },
      "fused_relu" : 0,
      "debug_info" : "x",
      "top" : "x",
      "type" : "elementwise",
      "name" : "x",
      "beta" : 0
    },
    {
      "pad_r" : 0,
      "fused_relu" : 0,
      "fused_tanh" : 0,
      "debug_info" : "img",
      "pad_fill_mode" : 0,
      "pad_b" : 0,
      "pad_l" : 0,
      "top" : "img",
      "blob_weights" : 329,
      "K" : 64,
      "blob_biases" : 327,
      "name" : "img",
      "has_batch_norm" : 0,
      "type" : "convolution",
      "n_groups" : 1,
      "pad_t" : 0,
      "has_biases" : 1,
      "C" : 12,
      "bottom" : "x",
      "weights" : {

      },
      "Nx" : 1,
      "pad_mode" : 0,
      "pad_value" : 0,
      "Ny" : 1,
      "n_parallel" : 1
    },
    {
      "bottom" : "img",
      "end" : 3,
      "start" : 0,
      "weights" : {

      },
      "axis" : 2,
      "debug_info" : "1422",
      "top" : "1422",
      "type" : "slice",
      "name" : "1422"
    },
    {
      "bottom" : "img",
      "end" : 12,
      "start" : 3,
      "weights" : {

      },
      "axis" : 2,
      "debug_info" : "1426",
      "top" : "1426",
      "type" : "slice",
      "name" : "1426"
    },
    {
      "name" : "h",
      "weights" : {

      },
      "dst_w" : 512,
      "version" : 1,
      "dst_n" : 3,
      "dst_nd_rank" : 5,
      "type" : "reshape",
      "dst_h" : 512,
      "mode" : 0,
      "dynamic_shape" : false,
      "bottom" : "1426",
      "debug_info" : "h",
      "dst_seq" : 1,
      "dst_k" : 3,
      "top" : "h"
    },
    {
      "begin_104" : 0,
      "begin_63" : 0,
      "begin_59" : 0,
      "begin_64" : 0,
      "begin_105" : 0,
      "begin_65" : 0,
      "begin_0" : 0,
      "begin_70" : 0,
      "begin_66" : 0,
      "begin_106" : 0,
      "begin_110" : 0,
      "begin_2" : 0,
      "begin_71" : 0,
      "begin_67" : 0,
      "begin_68" : 0,
      "begin_107" : 0,
      "begin_111" : 0,
      "begin_4" : 0,
      "begin_72" : 0,
      "begin_73" : 0,
      "begin_69" : 0,
      "begin_6" : 0,
      "begin_74" : 0,
      "begin_108" : 0,
      "type" : "split_nd",
      "begin_8" : 0,
      "begin_112" : 0,
      "begin_75" : 0,
      "begin_10" : 0,
      "begin_80" : 0,
      "begin_76" : 0,
      "begin_109" : 0,
      "begin_113" : 0,
      "begin_11" : 0,
      "nd_axis" : 2,
      "begin_81" : 0,
      "begin_77" : 0,
      "begin_114" : 0,
      "begin_12" : 0,
      "begin_78" : 0,
      "begin_82" : 0,
      "begin_13" : 0,
      "begin_83" : 0,
      "begin_79" : 0,
      "begin_115" : 0,
      "begin_14" : 0,
      "begin_84" : 0,
      "begin_15" : 0,
      "begin_85" : 0,
      "num_splits" : 3,
      "begin_116" : 0,
      "begin_120" : 0,
      "begin_20" : 0,
      "begin_86" : 0,
      "begin_16" : 0,
      "begin_90" : 0,
      "begin_21" : 0,
      "begin_91" : 0,
      "begin_87" : 0,
      "begin_17" : 0,
      "begin_117" : 0,
      "begin_121" : 0,
      "begin_18" : 0,
      "begin_92" : 0,
      "begin_88" : 0,
      "begin_22" : 0,
      "begin_23" : 0,
      "begin_89" : 0,
      "begin_19" : 0,
      "begin_93" : 0,
      "begin_118" : 0,
      "begin_122" : 0,
      "begin_24" : 0,
      "begin_94" : 0,
      "begin_25" : 0,
      "begin_95" : 0,
      "begin_119" : 0,
      "begin_123" : 0,
      "begin_30" : 0,
      "begin_26" : 0,
      "begin_96" : 0,
      "begin_124" : 0,
      "begin_31" : 0,
      "begin_97" : 0,
      "begin_27" : 0,
      "begin_28" : 0,
      "begin_98" : 0,
      "begin_32" : 0,
      "begin_125" : 0,
      "begin_33" : 0,
      "begin_29" : 0,
      "begin_99" : 0,
      "begin_1" : 0,
      "weights" : {

      },
      "begin_34" : 0,
      "bottom" : "h",
      "begin_3" : 0,
      "begin_126" : 0,
      "begin_35" : 0,
      "begin_5" : 0,
      "begin_36" : 0,
      "begin_40" : 0,
      "begin_127" : 0,
      "name" : "1435",
      "begin_41" : 0,
      "begin_37" : 0,
      "begin_7" : 0,
      "begin_42" : 0,
      "begin_38" : 0,
      "begin_9" : 0,
      "begin_39" : 0,
      "begin_43" : 0,
      "begin_44" : 0,
      "begin_45" : 0,
      "begin_50" : 0,
      "begin_46" : 0,
      "begin_51" : 0,
      "begin_47" : 0,
      "begin_100" : 0,
      "begin_52" : 0,
      "debug_info" : "1435",
      "begin_48" : 0,
      "top" : "1435_0,1435_1,1435_2",
      "begin_101" : 0,
      "begin_53" : 0,
      "begin_49" : 0,
      "begin_54" : 0,
      "begin_55" : 0,
      "begin_102" : 0,
      "begin_60" : 0,
      "begin_56" : 0,
      "begin_103" : 0,
      "begin_57" : 0,
      "begin_61" : 0,
      "begin_62" : 0,
      "begin_58" : 0
    },
    {
      "size_of_axes" : 1,
      "bottom" : "1435_0",
      "axes_0" : 2,
      "weights" : {

      },
      "nd_axis" : 0,
      "debug_info" : "squeeze_21",
      "version" : 1,
      "top" : "squeeze_21",
      "type" : "squeeze",
      "name" : "squeeze_21"
    },
    {
      "size_of_axes" : 1,
      "bottom" : "1435_1",
      "axes_0" : 2,
      "weights" : {

      },
      "nd_axis" : 0,
      "debug_info" : "squeeze_22",
      "version" : 1,
      "top" : "squeeze_22",
      "type" : "squeeze",
      "name" : "squeeze_22"
    },
    {
      "size_of_axes" : 1,
      "bottom" : "1435_2",
      "axes_0" : 2,
      "weights" : {

      },
      "nd_axis" : 0,
      "debug_info" : "squeeze_23",
      "version" : 1,
      "top" : "squeeze_23",
      "type" : "squeeze",
      "name" : "squeeze_23"
    },
    {
      "pad_r" : 0,
      "fused_relu" : 0,
      "fused_tanh" : 0,
      "debug_info" : "1451_has_output_shape",
      "pad_fill_mode" : 0,
      "pad_b" : 0,
      "pad_l" : 0,
      "top" : "1451_has_output_shape",
      "blob_weights" : 331,
      "K" : 3,
      "name" : "1451_has_output_shape",
      "deconv_out_height" : 1024,
      "has_batch_norm" : 0,
      "type" : "deconvolution",
      "n_groups" : 3,
      "pad_t" : 0,
      "hint_fallback_from_metal" : 1,
      "stride_y" : 2,
      "has_biases" : 0,
      "C" : 3,
      "bottom" : "1422",
      "weights" : {

      },
      "Nx" : 1,
      "pad_mode" : 0,
      "deconv_out_width" : 512,
      "pad_value" : 0,
      "Ny" : 2,
      "n_parallel" : 1
    },
    {
      "pad_r" : 0,
      "fused_relu" : 0,
      "fused_tanh" : 0,
      "debug_info" : "1456_has_output_shape",
      "pad_fill_mode" : 0,
      "pad_b" : 0,
      "pad_l" : 0,
      "top" : "1456_has_output_shape",
      "blob_weights" : 333,
      "K" : 3,
      "name" : "1456_has_output_shape",
      "deconv_out_height" : 1024,
      "has_batch_norm" : 0,
      "type" : "deconvolution",
      "n_groups" : 3,
      "pad_t" : 0,
      "hint_fallback_from_metal" : 1,
      "stride_y" : 2,
      "has_biases" : 0,
      "C" : 3,
      "bottom" : "squeeze_21",
      "weights" : {

      },
      "Nx" : 1,
      "pad_mode" : 0,
      "deconv_out_width" : 512,
      "pad_value" : 0,
      "Ny" : 2,
      "n_parallel" : 1
    },
    {
      "bottom" : "1451_has_output_shape,1456_has_output_shape",
      "alpha" : 1,
      "operation" : 0,
      "weights" : {

      },
      "fused_relu" : 0,
      "debug_info" : "lo",
      "top" : "lo",
      "type" : "elementwise",
      "name" : "lo",
      "beta" : 0
    },
    {
      "pad_r" : 0,
      "fused_relu" : 0,
      "fused_tanh" : 0,
      "debug_info" : "1470_has_output_shape",
      "pad_fill_mode" : 0,
      "pad_b" : 0,
      "pad_l" : 0,
      "top" : "1470_has_output_shape",
      "blob_weights" : 335,
      "K" : 3,
      "name" : "1470_has_output_shape",
      "deconv_out_height" : 1024,
      "has_batch_norm" : 0,
      "type" : "deconvolution",
      "n_groups" : 3,
      "pad_t" : 0,
      "hint_fallback_from_metal" : 1,
      "stride_y" : 2,
      "has_biases" : 0,
      "C" : 3,
      "bottom" : "squeeze_22",
      "weights" : {

      },
      "Nx" : 1,
      "pad_mode" : 0,
      "deconv_out_width" : 512,
      "pad_value" : 0,
      "Ny" : 2,
      "n_parallel" : 1
    },
    {
      "pad_r" : 0,
      "fused_relu" : 0,
      "fused_tanh" : 0,
      "debug_info" : "1475_has_output_shape",
      "pad_fill_mode" : 0,
      "pad_b" : 0,
      "pad_l" : 0,
      "top" : "1475_has_output_shape",
      "blob_weights" : 337,
      "K" : 3,
      "name" : "1475_has_output_shape",
      "deconv_out_height" : 1024,
      "has_batch_norm" : 0,
      "type" : "deconvolution",
      "n_groups" : 3,
      "pad_t" : 0,
      "hint_fallback_from_metal" : 1,
      "stride_y" : 2,
      "has_biases" : 0,
      "C" : 3,
      "bottom" : "squeeze_23",
      "weights" : {

      },
      "Nx" : 1,
      "pad_mode" : 0,
      "deconv_out_width" : 512,
      "pad_value" : 0,
      "Ny" : 2,
      "n_parallel" : 1
    },
    {
      "bottom" : "1470_has_output_shape,1475_has_output_shape",
      "alpha" : 1,
      "operation" : 0,
      "weights" : {

      },
      "fused_relu" : 0,
      "debug_info" : "hi",
      "top" : "hi",
      "type" : "elementwise",
      "name" : "hi",
      "beta" : 0
    },
    {
      "pad_r" : 0,
      "fused_relu" : 0,
      "fused_tanh" : 0,
      "debug_info" : "1489_has_output_shape",
      "pad_fill_mode" : 0,
      "pad_b" : 0,
      "pad_l" : 0,
      "top" : "1489_has_output_shape",
      "blob_weights" : 339,
      "K" : 3,
      "stride_x" : 2,
      "name" : "1489_has_output_shape",
      "deconv_out_height" : 1024,
      "has_batch_norm" : 0,
      "type" : "deconvolution",
      "n_groups" : 3,
      "pad_t" : 0,
      "hint_fallback_from_metal" : 1,
      "has_biases" : 0,
      "C" : 3,
      "bottom" : "lo",
      "weights" : {

      },
      "Nx" : 2,
      "pad_mode" : 0,
      "deconv_out_width" : 1024,
      "pad_value" : 0,
      "Ny" : 1,
      "n_parallel" : 1
    },
    {
      "pad_r" : 0,
      "fused_relu" : 0,
      "fused_tanh" : 0,
      "debug_info" : "1494_has_output_shape",
      "pad_fill_mode" : 0,
      "pad_b" : 0,
      "pad_l" : 0,
      "top" : "1494_has_output_shape",
      "blob_weights" : 341,
      "K" : 3,
      "stride_x" : 2,
      "name" : "1494_has_output_shape",
      "deconv_out_height" : 1024,
      "has_batch_norm" : 0,
      "type" : "deconvolution",
      "n_groups" : 3,
      "pad_t" : 0,
      "hint_fallback_from_metal" : 1,
      "has_biases" : 0,
      "C" : 3,
      "bottom" : "hi",
      "weights" : {

      },
      "Nx" : 2,
      "pad_mode" : 0,
      "deconv_out_width" : 1024,
      "pad_value" : 0,
      "Ny" : 1,
      "n_parallel" : 1
    },
    {
      "bottom" : "1489_has_output_shape,1494_has_output_shape",
      "alpha" : 1,
      "operation" : 0,
      "weights" : {

      },
      "fused_relu" : 0,
      "debug_info" : "var_1495",
      "top" : "var_1495",
      "type" : "elementwise",
      "name" : "var_1495",
      "beta" : 0
    },
    {
      "size_of_axes" : 0,
      "bottom" : "var_1495",
      "weights" : {

      },
      "nd_axis" : 0,
      "debug_info" : "squeeze",
      "version" : 1,
      "top" : "squeeze_out",
      "type" : "squeeze",
      "name" : "squeeze",
      "squeeze_all" : true
    },
    {
      "bottom" : "squeeze_out",
      "alpha" : 127.5,
      "beta" : 127.5,
      "mode" : 6,
      "weights" : {

      },
      "debug_info" : "activation",
      "top" : "activation_out",
      "type" : "activation",
      "name" : "activation",
      "attributes" : {
        "is_output" : 1
      }
    }
  ]
}